node {
  name: "global_step/Initializer/zeros/shape_as_tensor"
  op: "Const"
  attr {
    key: "_class"
    value {
      list {
        s: "loc:@global_step"
      }
    }
  }
  attr {
    key: "_output_shapes"
    value {
      list {
        shape {
          dim {
          }
        }
      }
    }
  }
  attr {
    key: "dtype"
    value {
      type: DT_INT32
    }
  }
  attr {
    key: "value"
    value {
      tensor {
        dtype: DT_INT32
        tensor_shape {
          dim {
          }
        }
      }
    }
  }
}
node {
  name: "global_step/Initializer/zeros/Const"
  op: "Const"
  attr {
    key: "_class"
    value {
      list {
        s: "loc:@global_step"
      }
    }
  }
  attr {
    key: "_output_shapes"
    value {
      list {
        shape {
        }
      }
    }
  }
  attr {
    key: "dtype"
    value {
      type: DT_INT64
    }
  }
  attr {
    key: "value"
    value {
      tensor {
        dtype: DT_INT64
        tensor_shape {
        }
        int64_val: 0
      }
    }
  }
}
node {
  name: "global_step/Initializer/zeros"
  op: "Fill"
  input: "global_step/Initializer/zeros/shape_as_tensor"
  input: "global_step/Initializer/zeros/Const"
  attr {
    key: "T"
    value {
      type: DT_INT64
    }
  }
  attr {
    key: "_class"
    value {
      list {
        s: "loc:@global_step"
      }
    }
  }
  attr {
    key: "_output_shapes"
    value {
      list {
        shape {
        }
      }
    }
  }
  attr {
    key: "index_type"
    value {
      type: DT_INT32
    }
  }
}
node {
  name: "global_step"
  op: "VariableV2"
  attr {
    key: "_class"
    value {
      list {
        s: "loc:@global_step"
      }
    }
  }
  attr {
    key: "_output_shapes"
    value {
      list {
        shape {
        }
      }
    }
  }
  attr {
    key: "container"
    value {
      s: ""
    }
  }
  attr {
    key: "dtype"
    value {
      type: DT_INT64
    }
  }
  attr {
    key: "shape"
    value {
      shape {
      }
    }
  }
  attr {
    key: "shared_name"
    value {
      s: ""
    }
  }
}
node {
  name: "global_step/Assign"
  op: "Assign"
  input: "global_step"
  input: "global_step/Initializer/zeros"
  attr {
    key: "T"
    value {
      type: DT_INT64
    }
  }
  attr {
    key: "_class"
    value {
      list {
        s: "loc:@global_step"
      }
    }
  }
  attr {
    key: "_output_shapes"
    value {
      list {
        shape {
        }
      }
    }
  }
  attr {
    key: "use_locking"
    value {
      b: true
    }
  }
  attr {
    key: "validate_shape"
    value {
      b: true
    }
  }
}
node {
  name: "global_step/read"
  op: "Identity"
  input: "global_step"
  attr {
    key: "T"
    value {
      type: DT_INT64
    }
  }
  attr {
    key: "_class"
    value {
      list {
        s: "loc:@global_step"
      }
    }
  }
  attr {
    key: "_output_shapes"
    value {
      list {
        shape {
        }
      }
    }
  }
}
node {
  name: "train_input_fn/parallel_read/filenames/Const"
  op: "Const"
  attr {
    key: "_output_shapes"
    value {
      list {
        shape {
          dim {
            size: 1
          }
        }
      }
    }
  }
  attr {
    key: "dtype"
    value {
      type: DT_STRING
    }
  }
  attr {
    key: "value"
    value {
      tensor {
        dtype: DT_STRING
        tensor_shape {
          dim {
            size: 1
          }
        }
        string_val: "/mnt/data/seqbi/sourcedata/train.sources"
      }
    }
  }
}
node {
  name: "train_input_fn/parallel_read/filenames/Size"
  op: "Const"
  attr {
    key: "_output_shapes"
    value {
      list {
        shape {
        }
      }
    }
  }
  attr {
    key: "dtype"
    value {
      type: DT_INT32
    }
  }
  attr {
    key: "value"
    value {
      tensor {
        dtype: DT_INT32
        tensor_shape {
        }
        int_val: 1
      }
    }
  }
}
node {
  name: "train_input_fn/parallel_read/filenames/Greater/y"
  op: "Const"
  attr {
    key: "_output_shapes"
    value {
      list {
        shape {
        }
      }
    }
  }
  attr {
    key: "dtype"
    value {
      type: DT_INT32
    }
  }
  attr {
    key: "value"
    value {
      tensor {
        dtype: DT_INT32
        tensor_shape {
        }
        int_val: 0
      }
    }
  }
}
node {
  name: "train_input_fn/parallel_read/filenames/Greater"
  op: "Greater"
  input: "train_input_fn/parallel_read/filenames/Size"
  input: "train_input_fn/parallel_read/filenames/Greater/y"
  attr {
    key: "T"
    value {
      type: DT_INT32
    }
  }
  attr {
    key: "_output_shapes"
    value {
      list {
        shape {
        }
      }
    }
  }
}
node {
  name: "train_input_fn/parallel_read/filenames/Assert/Const"
  op: "Const"
  attr {
    key: "_output_shapes"
    value {
      list {
        shape {
        }
      }
    }
  }
  attr {
    key: "dtype"
    value {
      type: DT_STRING
    }
  }
  attr {
    key: "value"
    value {
      tensor {
        dtype: DT_STRING
        tensor_shape {
        }
        string_val: "string_input_producer requires a non-null input tensor"
      }
    }
  }
}
node {
  name: "train_input_fn/parallel_read/filenames/Assert/Assert/data_0"
  op: "Const"
  attr {
    key: "_output_shapes"
    value {
      list {
        shape {
        }
      }
    }
  }
  attr {
    key: "dtype"
    value {
      type: DT_STRING
    }
  }
  attr {
    key: "value"
    value {
      tensor {
        dtype: DT_STRING
        tensor_shape {
        }
        string_val: "string_input_producer requires a non-null input tensor"
      }
    }
  }
}
node {
  name: "train_input_fn/parallel_read/filenames/Assert/Assert"
  op: "Assert"
  input: "train_input_fn/parallel_read/filenames/Greater"
  input: "train_input_fn/parallel_read/filenames/Assert/Assert/data_0"
  attr {
    key: "T"
    value {
      list {
        type: DT_STRING
      }
    }
  }
  attr {
    key: "summarize"
    value {
      i: 3
    }
  }
}
node {
  name: "train_input_fn/parallel_read/filenames/Identity"
  op: "Identity"
  input: "train_input_fn/parallel_read/filenames/Const"
  input: "^train_input_fn/parallel_read/filenames/Assert/Assert"
  attr {
    key: "T"
    value {
      type: DT_STRING
    }
  }
  attr {
    key: "_output_shapes"
    value {
      list {
        shape {
          dim {
            size: 1
          }
        }
      }
    }
  }
}
node {
  name: "train_input_fn/parallel_read/filenames"
  op: "FIFOQueueV2"
  attr {
    key: "_output_shapes"
    value {
      list {
        shape {
        }
      }
    }
  }
  attr {
    key: "capacity"
    value {
      i: 32
    }
  }
  attr {
    key: "component_types"
    value {
      list {
        type: DT_STRING
      }
    }
  }
  attr {
    key: "container"
    value {
      s: ""
    }
  }
  attr {
    key: "shapes"
    value {
      list {
        shape {
        }
      }
    }
  }
  attr {
    key: "shared_name"
    value {
      s: ""
    }
  }
}
node {
  name: "train_input_fn/parallel_read/filenames/filenames_EnqueueMany"
  op: "QueueEnqueueManyV2"
  input: "train_input_fn/parallel_read/filenames"
  input: "train_input_fn/parallel_read/filenames/Identity"
  attr {
    key: "Tcomponents"
    value {
      list {
        type: DT_STRING
      }
    }
  }
  attr {
    key: "timeout_ms"
    value {
      i: -1
    }
  }
}
node {
  name: "train_input_fn/parallel_read/filenames/filenames_Close"
  op: "QueueCloseV2"
  input: "train_input_fn/parallel_read/filenames"
  attr {
    key: "cancel_pending_enqueues"
    value {
      b: false
    }
  }
}
node {
  name: "train_input_fn/parallel_read/filenames/filenames_Close_1"
  op: "QueueCloseV2"
  input: "train_input_fn/parallel_read/filenames"
  attr {
    key: "cancel_pending_enqueues"
    value {
      b: true
    }
  }
}
node {
  name: "train_input_fn/parallel_read/filenames/filenames_Size"
  op: "QueueSizeV2"
  input: "train_input_fn/parallel_read/filenames"
  attr {
    key: "_output_shapes"
    value {
      list {
        shape {
        }
      }
    }
  }
}
node {
  name: "train_input_fn/parallel_read/filenames/ToFloat"
  op: "Cast"
  input: "train_input_fn/parallel_read/filenames/filenames_Size"
  attr {
    key: "DstT"
    value {
      type: DT_FLOAT
    }
  }
  attr {
    key: "SrcT"
    value {
      type: DT_INT32
    }
  }
  attr {
    key: "_output_shapes"
    value {
      list {
        shape {
        }
      }
    }
  }
}
node {
  name: "train_input_fn/parallel_read/filenames/mul/y"
  op: "Const"
  attr {
    key: "_output_shapes"
    value {
      list {
        shape {
        }
      }
    }
  }
  attr {
    key: "dtype"
    value {
      type: DT_FLOAT
    }
  }
  attr {
    key: "value"
    value {
      tensor {
        dtype: DT_FLOAT
        tensor_shape {
        }
        float_val: 0.03125
      }
    }
  }
}
node {
  name: "train_input_fn/parallel_read/filenames/mul"
  op: "Mul"
  input: "train_input_fn/parallel_read/filenames/ToFloat"
  input: "train_input_fn/parallel_read/filenames/mul/y"
  attr {
    key: "T"
    value {
      type: DT_FLOAT
    }
  }
  attr {
    key: "_output_shapes"
    value {
      list {
        shape {
        }
      }
    }
  }
}
node {
  name: "train_input_fn/parallel_read/filenames/fraction_of_32_full/tags"
  op: "Const"
  attr {
    key: "_output_shapes"
    value {
      list {
        shape {
        }
      }
    }
  }
  attr {
    key: "dtype"
    value {
      type: DT_STRING
    }
  }
  attr {
    key: "value"
    value {
      tensor {
        dtype: DT_STRING
        tensor_shape {
        }
        string_val: "train_input_fn/parallel_read/filenames/fraction_of_32_full"
      }
    }
  }
}
node {
  name: "train_input_fn/parallel_read/filenames/fraction_of_32_full"
  op: "ScalarSummary"
  input: "train_input_fn/parallel_read/filenames/fraction_of_32_full/tags"
  input: "train_input_fn/parallel_read/filenames/mul"
  attr {
    key: "T"
    value {
      type: DT_FLOAT
    }
  }
  attr {
    key: "_output_shapes"
    value {
      list {
        shape {
        }
      }
    }
  }
}
node {
  name: "train_input_fn/parallel_read/common_queue"
  op: "FIFOQueueV2"
  attr {
    key: "_output_shapes"
    value {
      list {
        shape {
        }
      }
    }
  }
  attr {
    key: "capacity"
    value {
      i: 4096
    }
  }
  attr {
    key: "component_types"
    value {
      list {
        type: DT_STRING
        type: DT_STRING
      }
    }
  }
  attr {
    key: "container"
    value {
      s: ""
    }
  }
  attr {
    key: "shapes"
    value {
      list {
      }
    }
  }
  attr {
    key: "shared_name"
    value {
      s: ""
    }
  }
}
node {
  name: "train_input_fn/parallel_read/common_queue_Size"
  op: "QueueSizeV2"
  input: "train_input_fn/parallel_read/common_queue"
  attr {
    key: "_output_shapes"
    value {
      list {
        shape {
        }
      }
    }
  }
}
node {
  name: "train_input_fn/parallel_read/ToFloat"
  op: "Cast"
  input: "train_input_fn/parallel_read/common_queue_Size"
  attr {
    key: "DstT"
    value {
      type: DT_FLOAT
    }
  }
  attr {
    key: "SrcT"
    value {
      type: DT_INT32
    }
  }
  attr {
    key: "_output_shapes"
    value {
      list {
        shape {
        }
      }
    }
  }
}
node {
  name: "train_input_fn/parallel_read/mul/y"
  op: "Const"
  attr {
    key: "_output_shapes"
    value {
      list {
        shape {
        }
      }
    }
  }
  attr {
    key: "dtype"
    value {
      type: DT_FLOAT
    }
  }
  attr {
    key: "value"
    value {
      tensor {
        dtype: DT_FLOAT
        tensor_shape {
        }
        float_val: 0.000244140625
      }
    }
  }
}
node {
  name: "train_input_fn/parallel_read/mul"
  op: "Mul"
  input: "train_input_fn/parallel_read/ToFloat"
  input: "train_input_fn/parallel_read/mul/y"
  attr {
    key: "T"
    value {
      type: DT_FLOAT
    }
  }
  attr {
    key: "_output_shapes"
    value {
      list {
        shape {
        }
      }
    }
  }
}
node {
  name: "train_input_fn/parallel_read/fraction_of_4096_full/tags"
  op: "Const"
  attr {
    key: "_output_shapes"
    value {
      list {
        shape {
        }
      }
    }
  }
  attr {
    key: "dtype"
    value {
      type: DT_STRING
    }
  }
  attr {
    key: "value"
    value {
      tensor {
        dtype: DT_STRING
        tensor_shape {
        }
        string_val: "train_input_fn/parallel_read/fraction_of_4096_full"
      }
    }
  }
}
node {
  name: "train_input_fn/parallel_read/fraction_of_4096_full"
  op: "ScalarSummary"
  input: "train_input_fn/parallel_read/fraction_of_4096_full/tags"
  input: "train_input_fn/parallel_read/mul"
  attr {
    key: "T"
    value {
      type: DT_FLOAT
    }
  }
  attr {
    key: "_output_shapes"
    value {
      list {
        shape {
        }
      }
    }
  }
}
node {
  name: "train_input_fn/parallel_read/TextLineReaderV2"
  op: "TextLineReaderV2"
  attr {
    key: "_output_shapes"
    value {
      list {
        shape {
        }
      }
    }
  }
  attr {
    key: "container"
    value {
      s: ""
    }
  }
  attr {
    key: "shared_name"
    value {
      s: ""
    }
  }
  attr {
    key: "skip_header_lines"
    value {
      i: 0
    }
  }
}
node {
  name: "train_input_fn/parallel_read/ReaderReadV2"
  op: "ReaderReadV2"
  input: "train_input_fn/parallel_read/TextLineReaderV2"
  input: "train_input_fn/parallel_read/filenames"
  attr {
    key: "_output_shapes"
    value {
      list {
        shape {
        }
        shape {
        }
      }
    }
  }
}
node {
  name: "train_input_fn/parallel_read/common_queue_enqueue"
  op: "QueueEnqueueV2"
  input: "train_input_fn/parallel_read/common_queue"
  input: "train_input_fn/parallel_read/ReaderReadV2"
  input: "train_input_fn/parallel_read/ReaderReadV2:1"
  attr {
    key: "Tcomponents"
    value {
      list {
        type: DT_STRING
        type: DT_STRING
      }
    }
  }
  attr {
    key: "timeout_ms"
    value {
      i: -1
    }
  }
}
node {
  name: "train_input_fn/parallel_read/common_queue_Close"
  op: "QueueCloseV2"
  input: "train_input_fn/parallel_read/common_queue"
  attr {
    key: "cancel_pending_enqueues"
    value {
      b: false
    }
  }
}
node {
  name: "train_input_fn/parallel_read/common_queue_Close_1"
  op: "QueueCloseV2"
  input: "train_input_fn/parallel_read/common_queue"
  attr {
    key: "cancel_pending_enqueues"
    value {
      b: true
    }
  }
}
node {
  name: "train_input_fn/parallel_read/common_queue_Dequeue"
  op: "QueueDequeueV2"
  input: "train_input_fn/parallel_read/common_queue"
  attr {
    key: "_output_shapes"
    value {
      list {
        shape {
          unknown_rank: true
        }
        shape {
          unknown_rank: true
        }
      }
    }
  }
  attr {
    key: "component_types"
    value {
      list {
        type: DT_STRING
        type: DT_STRING
      }
    }
  }
  attr {
    key: "timeout_ms"
    value {
      i: -1
    }
  }
}
node {
  name: "train_input_fn/parallel_read_1/filenames/Const"
  op: "Const"
  attr {
    key: "_output_shapes"
    value {
      list {
        shape {
          dim {
            size: 1
          }
        }
      }
    }
  }
  attr {
    key: "dtype"
    value {
      type: DT_STRING
    }
  }
  attr {
    key: "value"
    value {
      tensor {
        dtype: DT_STRING
        tensor_shape {
          dim {
            size: 1
          }
        }
        string_val: "/mnt/data/seqbi/sourcedata/train.targets"
      }
    }
  }
}
node {
  name: "train_input_fn/parallel_read_1/filenames/Size"
  op: "Const"
  attr {
    key: "_output_shapes"
    value {
      list {
        shape {
        }
      }
    }
  }
  attr {
    key: "dtype"
    value {
      type: DT_INT32
    }
  }
  attr {
    key: "value"
    value {
      tensor {
        dtype: DT_INT32
        tensor_shape {
        }
        int_val: 1
      }
    }
  }
}
node {
  name: "train_input_fn/parallel_read_1/filenames/Greater/y"
  op: "Const"
  attr {
    key: "_output_shapes"
    value {
      list {
        shape {
        }
      }
    }
  }
  attr {
    key: "dtype"
    value {
      type: DT_INT32
    }
  }
  attr {
    key: "value"
    value {
      tensor {
        dtype: DT_INT32
        tensor_shape {
        }
        int_val: 0
      }
    }
  }
}
node {
  name: "train_input_fn/parallel_read_1/filenames/Greater"
  op: "Greater"
  input: "train_input_fn/parallel_read_1/filenames/Size"
  input: "train_input_fn/parallel_read_1/filenames/Greater/y"
  attr {
    key: "T"
    value {
      type: DT_INT32
    }
  }
  attr {
    key: "_output_shapes"
    value {
      list {
        shape {
        }
      }
    }
  }
}
node {
  name: "train_input_fn/parallel_read_1/filenames/Assert/Const"
  op: "Const"
  attr {
    key: "_output_shapes"
    value {
      list {
        shape {
        }
      }
    }
  }
  attr {
    key: "dtype"
    value {
      type: DT_STRING
    }
  }
  attr {
    key: "value"
    value {
      tensor {
        dtype: DT_STRING
        tensor_shape {
        }
        string_val: "string_input_producer requires a non-null input tensor"
      }
    }
  }
}
node {
  name: "train_input_fn/parallel_read_1/filenames/Assert/Assert/data_0"
  op: "Const"
  attr {
    key: "_output_shapes"
    value {
      list {
        shape {
        }
      }
    }
  }
  attr {
    key: "dtype"
    value {
      type: DT_STRING
    }
  }
  attr {
    key: "value"
    value {
      tensor {
        dtype: DT_STRING
        tensor_shape {
        }
        string_val: "string_input_producer requires a non-null input tensor"
      }
    }
  }
}
node {
  name: "train_input_fn/parallel_read_1/filenames/Assert/Assert"
  op: "Assert"
  input: "train_input_fn/parallel_read_1/filenames/Greater"
  input: "train_input_fn/parallel_read_1/filenames/Assert/Assert/data_0"
  attr {
    key: "T"
    value {
      list {
        type: DT_STRING
      }
    }
  }
  attr {
    key: "summarize"
    value {
      i: 3
    }
  }
}
node {
  name: "train_input_fn/parallel_read_1/filenames/Identity"
  op: "Identity"
  input: "train_input_fn/parallel_read_1/filenames/Const"
  input: "^train_input_fn/parallel_read_1/filenames/Assert/Assert"
  attr {
    key: "T"
    value {
      type: DT_STRING
    }
  }
  attr {
    key: "_output_shapes"
    value {
      list {
        shape {
          dim {
            size: 1
          }
        }
      }
    }
  }
}
node {
  name: "train_input_fn/parallel_read_1/filenames"
  op: "FIFOQueueV2"
  attr {
    key: "_output_shapes"
    value {
      list {
        shape {
        }
      }
    }
  }
  attr {
    key: "capacity"
    value {
      i: 32
    }
  }
  attr {
    key: "component_types"
    value {
      list {
        type: DT_STRING
      }
    }
  }
  attr {
    key: "container"
    value {
      s: ""
    }
  }
  attr {
    key: "shapes"
    value {
      list {
        shape {
        }
      }
    }
  }
  attr {
    key: "shared_name"
    value {
      s: ""
    }
  }
}
node {
  name: "train_input_fn/parallel_read_1/filenames/filenames_EnqueueMany"
  op: "QueueEnqueueManyV2"
  input: "train_input_fn/parallel_read_1/filenames"
  input: "train_input_fn/parallel_read_1/filenames/Identity"
  attr {
    key: "Tcomponents"
    value {
      list {
        type: DT_STRING
      }
    }
  }
  attr {
    key: "timeout_ms"
    value {
      i: -1
    }
  }
}
node {
  name: "train_input_fn/parallel_read_1/filenames/filenames_Close"
  op: "QueueCloseV2"
  input: "train_input_fn/parallel_read_1/filenames"
  attr {
    key: "cancel_pending_enqueues"
    value {
      b: false
    }
  }
}
node {
  name: "train_input_fn/parallel_read_1/filenames/filenames_Close_1"
  op: "QueueCloseV2"
  input: "train_input_fn/parallel_read_1/filenames"
  attr {
    key: "cancel_pending_enqueues"
    value {
      b: true
    }
  }
}
node {
  name: "train_input_fn/parallel_read_1/filenames/filenames_Size"
  op: "QueueSizeV2"
  input: "train_input_fn/parallel_read_1/filenames"
  attr {
    key: "_output_shapes"
    value {
      list {
        shape {
        }
      }
    }
  }
}
node {
  name: "train_input_fn/parallel_read_1/filenames/ToFloat"
  op: "Cast"
  input: "train_input_fn/parallel_read_1/filenames/filenames_Size"
  attr {
    key: "DstT"
    value {
      type: DT_FLOAT
    }
  }
  attr {
    key: "SrcT"
    value {
      type: DT_INT32
    }
  }
  attr {
    key: "_output_shapes"
    value {
      list {
        shape {
        }
      }
    }
  }
}
node {
  name: "train_input_fn/parallel_read_1/filenames/mul/y"
  op: "Const"
  attr {
    key: "_output_shapes"
    value {
      list {
        shape {
        }
      }
    }
  }
  attr {
    key: "dtype"
    value {
      type: DT_FLOAT
    }
  }
  attr {
    key: "value"
    value {
      tensor {
        dtype: DT_FLOAT
        tensor_shape {
        }
        float_val: 0.03125
      }
    }
  }
}
node {
  name: "train_input_fn/parallel_read_1/filenames/mul"
  op: "Mul"
  input: "train_input_fn/parallel_read_1/filenames/ToFloat"
  input: "train_input_fn/parallel_read_1/filenames/mul/y"
  attr {
    key: "T"
    value {
      type: DT_FLOAT
    }
  }
  attr {
    key: "_output_shapes"
    value {
      list {
        shape {
        }
      }
    }
  }
}
node {
  name: "train_input_fn/parallel_read_1/filenames/fraction_of_32_full/tags"
  op: "Const"
  attr {
    key: "_output_shapes"
    value {
      list {
        shape {
        }
      }
    }
  }
  attr {
    key: "dtype"
    value {
      type: DT_STRING
    }
  }
  attr {
    key: "value"
    value {
      tensor {
        dtype: DT_STRING
        tensor_shape {
        }
        string_val: "train_input_fn/parallel_read_1/filenames/fraction_of_32_full"
      }
    }
  }
}
node {
  name: "train_input_fn/parallel_read_1/filenames/fraction_of_32_full"
  op: "ScalarSummary"
  input: "train_input_fn/parallel_read_1/filenames/fraction_of_32_full/tags"
  input: "train_input_fn/parallel_read_1/filenames/mul"
  attr {
    key: "T"
    value {
      type: DT_FLOAT
    }
  }
  attr {
    key: "_output_shapes"
    value {
      list {
        shape {
        }
      }
    }
  }
}
node {
  name: "train_input_fn/parallel_read_1/common_queue"
  op: "FIFOQueueV2"
  attr {
    key: "_output_shapes"
    value {
      list {
        shape {
        }
      }
    }
  }
  attr {
    key: "capacity"
    value {
      i: 4096
    }
  }
  attr {
    key: "component_types"
    value {
      list {
        type: DT_STRING
        type: DT_STRING
      }
    }
  }
  attr {
    key: "container"
    value {
      s: ""
    }
  }
  attr {
    key: "shapes"
    value {
      list {
      }
    }
  }
  attr {
    key: "shared_name"
    value {
      s: ""
    }
  }
}
node {
  name: "train_input_fn/parallel_read_1/common_queue_Size"
  op: "QueueSizeV2"
  input: "train_input_fn/parallel_read_1/common_queue"
  attr {
    key: "_output_shapes"
    value {
      list {
        shape {
        }
      }
    }
  }
}
node {
  name: "train_input_fn/parallel_read_1/ToFloat"
  op: "Cast"
  input: "train_input_fn/parallel_read_1/common_queue_Size"
  attr {
    key: "DstT"
    value {
      type: DT_FLOAT
    }
  }
  attr {
    key: "SrcT"
    value {
      type: DT_INT32
    }
  }
  attr {
    key: "_output_shapes"
    value {
      list {
        shape {
        }
      }
    }
  }
}
node {
  name: "train_input_fn/parallel_read_1/mul/y"
  op: "Const"
  attr {
    key: "_output_shapes"
    value {
      list {
        shape {
        }
      }
    }
  }
  attr {
    key: "dtype"
    value {
      type: DT_FLOAT
    }
  }
  attr {
    key: "value"
    value {
      tensor {
        dtype: DT_FLOAT
        tensor_shape {
        }
        float_val: 0.000244140625
      }
    }
  }
}
node {
  name: "train_input_fn/parallel_read_1/mul"
  op: "Mul"
  input: "train_input_fn/parallel_read_1/ToFloat"
  input: "train_input_fn/parallel_read_1/mul/y"
  attr {
    key: "T"
    value {
      type: DT_FLOAT
    }
  }
  attr {
    key: "_output_shapes"
    value {
      list {
        shape {
        }
      }
    }
  }
}
node {
  name: "train_input_fn/parallel_read_1/fraction_of_4096_full/tags"
  op: "Const"
  attr {
    key: "_output_shapes"
    value {
      list {
        shape {
        }
      }
    }
  }
  attr {
    key: "dtype"
    value {
      type: DT_STRING
    }
  }
  attr {
    key: "value"
    value {
      tensor {
        dtype: DT_STRING
        tensor_shape {
        }
        string_val: "train_input_fn/parallel_read_1/fraction_of_4096_full"
      }
    }
  }
}
node {
  name: "train_input_fn/parallel_read_1/fraction_of_4096_full"
  op: "ScalarSummary"
  input: "train_input_fn/parallel_read_1/fraction_of_4096_full/tags"
  input: "train_input_fn/parallel_read_1/mul"
  attr {
    key: "T"
    value {
      type: DT_FLOAT
    }
  }
  attr {
    key: "_output_shapes"
    value {
      list {
        shape {
        }
      }
    }
  }
}
node {
  name: "train_input_fn/parallel_read_1/TextLineReaderV2"
  op: "TextLineReaderV2"
  attr {
    key: "_output_shapes"
    value {
      list {
        shape {
        }
      }
    }
  }
  attr {
    key: "container"
    value {
      s: ""
    }
  }
  attr {
    key: "shared_name"
    value {
      s: ""
    }
  }
  attr {
    key: "skip_header_lines"
    value {
      i: 0
    }
  }
}
node {
  name: "train_input_fn/parallel_read_1/ReaderReadV2"
  op: "ReaderReadV2"
  input: "train_input_fn/parallel_read_1/TextLineReaderV2"
  input: "train_input_fn/parallel_read_1/filenames"
  attr {
    key: "_output_shapes"
    value {
      list {
        shape {
        }
        shape {
        }
      }
    }
  }
}
node {
  name: "train_input_fn/parallel_read_1/common_queue_enqueue"
  op: "QueueEnqueueV2"
  input: "train_input_fn/parallel_read_1/common_queue"
  input: "train_input_fn/parallel_read_1/ReaderReadV2"
  input: "train_input_fn/parallel_read_1/ReaderReadV2:1"
  attr {
    key: "Tcomponents"
    value {
      list {
        type: DT_STRING
        type: DT_STRING
      }
    }
  }
  attr {
    key: "timeout_ms"
    value {
      i: -1
    }
  }
}
node {
  name: "train_input_fn/parallel_read_1/common_queue_Close"
  op: "QueueCloseV2"
  input: "train_input_fn/parallel_read_1/common_queue"
  attr {
    key: "cancel_pending_enqueues"
    value {
      b: false
    }
  }
}
node {
  name: "train_input_fn/parallel_read_1/common_queue_Close_1"
  op: "QueueCloseV2"
  input: "train_input_fn/parallel_read_1/common_queue"
  attr {
    key: "cancel_pending_enqueues"
    value {
      b: true
    }
  }
}
node {
  name: "train_input_fn/parallel_read_1/common_queue_Dequeue"
  op: "QueueDequeueV2"
  input: "train_input_fn/parallel_read_1/common_queue"
  attr {
    key: "_output_shapes"
    value {
      list {
        shape {
          unknown_rank: true
        }
        shape {
          unknown_rank: true
        }
      }
    }
  }
  attr {
    key: "component_types"
    value {
      list {
        type: DT_STRING
        type: DT_STRING
      }
    }
  }
  attr {
    key: "timeout_ms"
    value {
      i: -1
    }
  }
}
node {
  name: "train_input_fn/random_shuffle_queue"
  op: "RandomShuffleQueueV2"
  attr {
    key: "_output_shapes"
    value {
      list {
        shape {
        }
      }
    }
  }
  attr {
    key: "capacity"
    value {
      i: 4096
    }
  }
  attr {
    key: "component_types"
    value {
      list {
        type: DT_STRING
        type: DT_STRING
      }
    }
  }
  attr {
    key: "container"
    value {
      s: ""
    }
  }
  attr {
    key: "min_after_dequeue"
    value {
      i: 1024
    }
  }
  attr {
    key: "seed"
    value {
      i: 87654321
    }
  }
  attr {
    key: "seed2"
    value {
      i: 687910394
    }
  }
  attr {
    key: "shapes"
    value {
      list {
      }
    }
  }
  attr {
    key: "shared_name"
    value {
      s: ""
    }
  }
}
node {
  name: "train_input_fn/random_shuffle_queue_enqueue"
  op: "QueueEnqueueV2"
  input: "train_input_fn/random_shuffle_queue"
  input: "train_input_fn/parallel_read/common_queue_Dequeue:1"
  input: "train_input_fn/parallel_read_1/common_queue_Dequeue:1"
  attr {
    key: "Tcomponents"
    value {
      list {
        type: DT_STRING
        type: DT_STRING
      }
    }
  }
  attr {
    key: "timeout_ms"
    value {
      i: -1
    }
  }
}
node {
  name: "train_input_fn/random_shuffle_queue_Close"
  op: "QueueCloseV2"
  input: "train_input_fn/random_shuffle_queue"
  attr {
    key: "cancel_pending_enqueues"
    value {
      b: false
    }
  }
}
node {
  name: "train_input_fn/random_shuffle_queue_Close_1"
  op: "QueueCloseV2"
  input: "train_input_fn/random_shuffle_queue"
  attr {
    key: "cancel_pending_enqueues"
    value {
      b: true
    }
  }
}
node {
  name: "train_input_fn/random_shuffle_queue_Dequeue"
  op: "QueueDequeueV2"
  input: "train_input_fn/random_shuffle_queue"
  attr {
    key: "_output_shapes"
    value {
      list {
        shape {
          unknown_rank: true
        }
        shape {
          unknown_rank: true
        }
      }
    }
  }
  attr {
    key: "component_types"
    value {
      list {
        type: DT_STRING
        type: DT_STRING
      }
    }
  }
  attr {
    key: "timeout_ms"
    value {
      i: -1
    }
  }
}
node {
  name: "train_input_fn/Const"
  op: "Const"
  attr {
    key: "_output_shapes"
    value {
      list {
        shape {
        }
      }
    }
  }
  attr {
    key: "dtype"
    value {
      type: DT_STRING
    }
  }
  attr {
    key: "value"
    value {
      tensor {
        dtype: DT_STRING
        tensor_shape {
        }
        string_val: ""
      }
    }
  }
}
node {
  name: "train_input_fn/packed"
  op: "Pack"
  input: "train_input_fn/random_shuffle_queue_Dequeue"
  attr {
    key: "N"
    value {
      i: 1
    }
  }
  attr {
    key: "T"
    value {
      type: DT_STRING
    }
  }
  attr {
    key: "_output_shapes"
    value {
      list {
        shape {
          unknown_rank: true
        }
      }
    }
  }
  attr {
    key: "axis"
    value {
      i: 0
    }
  }
}
node {
  name: "train_input_fn/StringSplit"
  op: "StringSplit"
  input: "train_input_fn/packed"
  input: "train_input_fn/Const"
  attr {
    key: "_output_shapes"
    value {
      list {
        shape {
          dim {
            size: -1
          }
          dim {
            size: 2
          }
        }
        shape {
          dim {
            size: -1
          }
        }
        shape {
          dim {
            size: 2
          }
        }
      }
    }
  }
  attr {
    key: "skip_empty"
    value {
      b: true
    }
  }
}
node {
  name: "train_input_fn/concat/values_1"
  op: "Const"
  attr {
    key: "_output_shapes"
    value {
      list {
        shape {
          dim {
            size: 1
          }
        }
      }
    }
  }
  attr {
    key: "dtype"
    value {
      type: DT_STRING
    }
  }
  attr {
    key: "value"
    value {
      tensor {
        dtype: DT_STRING
        tensor_shape {
          dim {
            size: 1
          }
        }
        string_val: "SEQUENCE_END"
      }
    }
  }
}
node {
  name: "train_input_fn/concat/axis"
  op: "Const"
  attr {
    key: "_output_shapes"
    value {
      list {
        shape {
        }
      }
    }
  }
  attr {
    key: "dtype"
    value {
      type: DT_INT32
    }
  }
  attr {
    key: "value"
    value {
      tensor {
        dtype: DT_INT32
        tensor_shape {
        }
        int_val: 0
      }
    }
  }
}
node {
  name: "train_input_fn/concat"
  op: "ConcatV2"
  input: "train_input_fn/StringSplit:1"
  input: "train_input_fn/concat/values_1"
  input: "train_input_fn/concat/axis"
  attr {
    key: "N"
    value {
      i: 2
    }
  }
  attr {
    key: "T"
    value {
      type: DT_STRING
    }
  }
  attr {
    key: "Tidx"
    value {
      type: DT_INT32
    }
  }
  attr {
    key: "_output_shapes"
    value {
      list {
        shape {
          dim {
            size: -1
          }
        }
      }
    }
  }
}
node {
  name: "train_input_fn/Size"
  op: "Size"
  input: "train_input_fn/concat"
  attr {
    key: "T"
    value {
      type: DT_STRING
    }
  }
  attr {
    key: "_output_shapes"
    value {
      list {
        shape {
        }
      }
    }
  }
  attr {
    key: "out_type"
    value {
      type: DT_INT32
    }
  }
}
node {
  name: "train_input_fn/Const_1"
  op: "Const"
  attr {
    key: "_output_shapes"
    value {
      list {
        shape {
        }
      }
    }
  }
  attr {
    key: "dtype"
    value {
      type: DT_STRING
    }
  }
  attr {
    key: "value"
    value {
      tensor {
        dtype: DT_STRING
        tensor_shape {
        }
        string_val: ""
      }
    }
  }
}
node {
  name: "train_input_fn/packed_1"
  op: "Pack"
  input: "train_input_fn/random_shuffle_queue_Dequeue:1"
  attr {
    key: "N"
    value {
      i: 1
    }
  }
  attr {
    key: "T"
    value {
      type: DT_STRING
    }
  }
  attr {
    key: "_output_shapes"
    value {
      list {
        shape {
          unknown_rank: true
        }
      }
    }
  }
  attr {
    key: "axis"
    value {
      i: 0
    }
  }
}
node {
  name: "train_input_fn/StringSplit_1"
  op: "StringSplit"
  input: "train_input_fn/packed_1"
  input: "train_input_fn/Const_1"
  attr {
    key: "_output_shapes"
    value {
      list {
        shape {
          dim {
            size: -1
          }
          dim {
            size: 2
          }
        }
        shape {
          dim {
            size: -1
          }
        }
        shape {
          dim {
            size: 2
          }
        }
      }
    }
  }
  attr {
    key: "skip_empty"
    value {
      b: true
    }
  }
}
node {
  name: "train_input_fn/concat_1/values_0"
  op: "Const"
  attr {
    key: "_output_shapes"
    value {
      list {
        shape {
          dim {
            size: 1
          }
        }
      }
    }
  }
  attr {
    key: "dtype"
    value {
      type: DT_STRING
    }
  }
  attr {
    key: "value"
    value {
      tensor {
        dtype: DT_STRING
        tensor_shape {
          dim {
            size: 1
          }
        }
        string_val: "SEQUENCE_START"
      }
    }
  }
}
node {
  name: "train_input_fn/concat_1/axis"
  op: "Const"
  attr {
    key: "_output_shapes"
    value {
      list {
        shape {
        }
      }
    }
  }
  attr {
    key: "dtype"
    value {
      type: DT_INT32
    }
  }
  attr {
    key: "value"
    value {
      tensor {
        dtype: DT_INT32
        tensor_shape {
        }
        int_val: 0
      }
    }
  }
}
node {
  name: "train_input_fn/concat_1"
  op: "ConcatV2"
  input: "train_input_fn/concat_1/values_0"
  input: "train_input_fn/StringSplit_1:1"
  input: "train_input_fn/concat_1/axis"
  attr {
    key: "N"
    value {
      i: 2
    }
  }
  attr {
    key: "T"
    value {
      type: DT_STRING
    }
  }
  attr {
    key: "Tidx"
    value {
      type: DT_INT32
    }
  }
  attr {
    key: "_output_shapes"
    value {
      list {
        shape {
          dim {
            size: -1
          }
        }
      }
    }
  }
}
node {
  name: "train_input_fn/concat_2/values_1"
  op: "Const"
  attr {
    key: "_output_shapes"
    value {
      list {
        shape {
          dim {
            size: 1
          }
        }
      }
    }
  }
  attr {
    key: "dtype"
    value {
      type: DT_STRING
    }
  }
  attr {
    key: "value"
    value {
      tensor {
        dtype: DT_STRING
        tensor_shape {
          dim {
            size: 1
          }
        }
        string_val: "SEQUENCE_END"
      }
    }
  }
}
node {
  name: "train_input_fn/concat_2/axis"
  op: "Const"
  attr {
    key: "_output_shapes"
    value {
      list {
        shape {
        }
      }
    }
  }
  attr {
    key: "dtype"
    value {
      type: DT_INT32
    }
  }
  attr {
    key: "value"
    value {
      tensor {
        dtype: DT_INT32
        tensor_shape {
        }
        int_val: 0
      }
    }
  }
}
node {
  name: "train_input_fn/concat_2"
  op: "ConcatV2"
  input: "train_input_fn/concat_1"
  input: "train_input_fn/concat_2/values_1"
  input: "train_input_fn/concat_2/axis"
  attr {
    key: "N"
    value {
      i: 2
    }
  }
  attr {
    key: "T"
    value {
      type: DT_STRING
    }
  }
  attr {
    key: "Tidx"
    value {
      type: DT_INT32
    }
  }
  attr {
    key: "_output_shapes"
    value {
      list {
        shape {
          dim {
            size: -1
          }
        }
      }
    }
  }
}
node {
  name: "train_input_fn/Size_1"
  op: "Size"
  input: "train_input_fn/concat_2"
  attr {
    key: "T"
    value {
      type: DT_STRING
    }
  }
  attr {
    key: "_output_shapes"
    value {
      list {
        shape {
        }
      }
    }
  }
  attr {
    key: "out_type"
    value {
      type: DT_INT32
    }
  }
}
node {
  name: "train_input_fn/GreaterEqual/y"
  op: "Const"
  attr {
    key: "_output_shapes"
    value {
      list {
        shape {
        }
      }
    }
  }
  attr {
    key: "dtype"
    value {
      type: DT_INT32
    }
  }
  attr {
    key: "value"
    value {
      tensor {
        dtype: DT_INT32
        tensor_shape {
        }
        int_val: 1
      }
    }
  }
}
node {
  name: "train_input_fn/GreaterEqual"
  op: "GreaterEqual"
  input: "train_input_fn/Size"
  input: "train_input_fn/GreaterEqual/y"
  attr {
    key: "T"
    value {
      type: DT_INT32
    }
  }
  attr {
    key: "_output_shapes"
    value {
      list {
        shape {
        }
      }
    }
  }
}
node {
  name: "train_input_fn/bucket_queue/LessEqual/x"
  op: "Const"
  attr {
    key: "_output_shapes"
    value {
      list {
        shape {
          dim {
            size: 5
          }
        }
      }
    }
  }
  attr {
    key: "dtype"
    value {
      type: DT_INT32
    }
  }
  attr {
    key: "value"
    value {
      tensor {
        dtype: DT_INT32
        tensor_shape {
          dim {
            size: 5
          }
        }
        tensor_content: "\000\000\000\200\n\000\000\000\024\000\000\000\036\000\000\000(\000\000\000"
      }
    }
  }
}
node {
  name: "train_input_fn/bucket_queue/LessEqual"
  op: "LessEqual"
  input: "train_input_fn/bucket_queue/LessEqual/x"
  input: "train_input_fn/Size"
  attr {
    key: "T"
    value {
      type: DT_INT32
    }
  }
  attr {
    key: "_output_shapes"
    value {
      list {
        shape {
          dim {
            size: 5
          }
        }
      }
    }
  }
}
node {
  name: "train_input_fn/bucket_queue/Less/y"
  op: "Const"
  attr {
    key: "_output_shapes"
    value {
      list {
        shape {
          dim {
            size: 5
          }
        }
      }
    }
  }
  attr {
    key: "dtype"
    value {
      type: DT_INT32
    }
  }
  attr {
    key: "value"
    value {
      tensor {
        dtype: DT_INT32
        tensor_shape {
          dim {
            size: 5
          }
        }
        tensor_content: "\n\000\000\000\024\000\000\000\036\000\000\000(\000\000\000\377\377\377\177"
      }
    }
  }
}
node {
  name: "train_input_fn/bucket_queue/Less"
  op: "Less"
  input: "train_input_fn/Size"
  input: "train_input_fn/bucket_queue/Less/y"
  attr {
    key: "T"
    value {
      type: DT_INT32
    }
  }
  attr {
    key: "_output_shapes"
    value {
      list {
        shape {
          dim {
            size: 5
          }
        }
      }
    }
  }
}
node {
  name: "train_input_fn/bucket_queue/LogicalAnd"
  op: "LogicalAnd"
  input: "train_input_fn/bucket_queue/LessEqual"
  input: "train_input_fn/bucket_queue/Less"
  attr {
    key: "_output_shapes"
    value {
      list {
        shape {
          dim {
            size: 5
          }
        }
      }
    }
  }
}
node {
  name: "train_input_fn/bucket_queue/Where"
  op: "Where"
  input: "train_input_fn/bucket_queue/LogicalAnd"
  attr {
    key: "T"
    value {
      type: DT_BOOL
    }
  }
  attr {
    key: "_output_shapes"
    value {
      list {
        shape {
          dim {
            size: -1
          }
          dim {
            size: 1
          }
        }
      }
    }
  }
}
node {
  name: "train_input_fn/bucket_queue/Const"
  op: "Const"
  attr {
    key: "_output_shapes"
    value {
      list {
        shape {
          dim {
            size: 2
          }
        }
      }
    }
  }
  attr {
    key: "dtype"
    value {
      type: DT_INT32
    }
  }
  attr {
    key: "value"
    value {
      tensor {
        dtype: DT_INT32
        tensor_shape {
          dim {
            size: 2
          }
        }
        tensor_content: "\000\000\000\000\001\000\000\000"
      }
    }
  }
}
node {
  name: "train_input_fn/bucket_queue/Min"
  op: "Min"
  input: "train_input_fn/bucket_queue/Where"
  input: "train_input_fn/bucket_queue/Const"
  attr {
    key: "T"
    value {
      type: DT_INT64
    }
  }
  attr {
    key: "Tidx"
    value {
      type: DT_INT32
    }
  }
  attr {
    key: "_output_shapes"
    value {
      list {
        shape {
        }
      }
    }
  }
  attr {
    key: "keep_dims"
    value {
      b: false
    }
  }
}
node {
  name: "train_input_fn/bucket_queue/ToInt32"
  op: "Cast"
  input: "train_input_fn/bucket_queue/Min"
  attr {
    key: "DstT"
    value {
      type: DT_INT32
    }
  }
  attr {
    key: "SrcT"
    value {
      type: DT_INT64
    }
  }
  attr {
    key: "_output_shapes"
    value {
      list {
        shape {
        }
      }
    }
  }
}
node {
  name: "train_input_fn/bucket_queue/bucket/batch_size"
  op: "Const"
  attr {
    key: "_output_shapes"
    value {
      list {
        shape {
        }
      }
    }
  }
  attr {
    key: "dtype"
    value {
      type: DT_INT32
    }
  }
  attr {
    key: "value"
    value {
      tensor {
        dtype: DT_INT32
        tensor_shape {
        }
        int_val: 32
      }
    }
  }
}
node {
  name: "train_input_fn/bucket_queue/bucket/batch_size_1"
  op: "Const"
  attr {
    key: "_output_shapes"
    value {
      list {
        shape {
        }
      }
    }
  }
  attr {
    key: "dtype"
    value {
      type: DT_INT32
    }
  }
  attr {
    key: "value"
    value {
      tensor {
        dtype: DT_INT32
        tensor_shape {
        }
        int_val: 32
      }
    }
  }
}
node {
  name: "train_input_fn/bucket_queue/bucket/batch_size_2"
  op: "Const"
  attr {
    key: "_output_shapes"
    value {
      list {
        shape {
        }
      }
    }
  }
  attr {
    key: "dtype"
    value {
      type: DT_INT32
    }
  }
  attr {
    key: "value"
    value {
      tensor {
        dtype: DT_INT32
        tensor_shape {
        }
        int_val: 32
      }
    }
  }
}
node {
  name: "train_input_fn/bucket_queue/bucket/batch_size_3"
  op: "Const"
  attr {
    key: "_output_shapes"
    value {
      list {
        shape {
        }
      }
    }
  }
  attr {
    key: "dtype"
    value {
      type: DT_INT32
    }
  }
  attr {
    key: "value"
    value {
      tensor {
        dtype: DT_INT32
        tensor_shape {
        }
        int_val: 32
      }
    }
  }
}
node {
  name: "train_input_fn/bucket_queue/bucket/batch_size_4"
  op: "Const"
  attr {
    key: "_output_shapes"
    value {
      list {
        shape {
        }
      }
    }
  }
  attr {
    key: "dtype"
    value {
      type: DT_INT32
    }
  }
  attr {
    key: "value"
    value {
      tensor {
        dtype: DT_INT32
        tensor_shape {
        }
        int_val: 32
      }
    }
  }
}
node {
  name: "train_input_fn/bucket_queue/bucket/bucket_queue_0"
  op: "PaddingFIFOQueueV2"
  attr {
    key: "_output_shapes"
    value {
      list {
        shape {
        }
      }
    }
  }
  attr {
    key: "capacity"
    value {
      i: 5512
    }
  }
  attr {
    key: "component_types"
    value {
      list {
        type: DT_INT32
        type: DT_INT32
        type: DT_STRING
        type: DT_INT32
        type: DT_STRING
      }
    }
  }
  attr {
    key: "container"
    value {
      s: ""
    }
  }
  attr {
    key: "shapes"
    value {
      list {
        shape {
        }
        shape {
        }
        shape {
          dim {
            size: -1
          }
        }
        shape {
        }
        shape {
          dim {
            size: -1
          }
        }
      }
    }
  }
  attr {
    key: "shared_name"
    value {
      s: ""
    }
  }
}
node {
  name: "train_input_fn/bucket_queue/bucket/bucket_queue_1"
  op: "PaddingFIFOQueueV2"
  attr {
    key: "_output_shapes"
    value {
      list {
        shape {
        }
      }
    }
  }
  attr {
    key: "capacity"
    value {
      i: 5512
    }
  }
  attr {
    key: "component_types"
    value {
      list {
        type: DT_INT32
        type: DT_INT32
        type: DT_STRING
        type: DT_INT32
        type: DT_STRING
      }
    }
  }
  attr {
    key: "container"
    value {
      s: ""
    }
  }
  attr {
    key: "shapes"
    value {
      list {
        shape {
        }
        shape {
        }
        shape {
          dim {
            size: -1
          }
        }
        shape {
        }
        shape {
          dim {
            size: -1
          }
        }
      }
    }
  }
  attr {
    key: "shared_name"
    value {
      s: ""
    }
  }
}
node {
  name: "train_input_fn/bucket_queue/bucket/bucket_queue_2"
  op: "PaddingFIFOQueueV2"
  attr {
    key: "_output_shapes"
    value {
      list {
        shape {
        }
      }
    }
  }
  attr {
    key: "capacity"
    value {
      i: 5512
    }
  }
  attr {
    key: "component_types"
    value {
      list {
        type: DT_INT32
        type: DT_INT32
        type: DT_STRING
        type: DT_INT32
        type: DT_STRING
      }
    }
  }
  attr {
    key: "container"
    value {
      s: ""
    }
  }
  attr {
    key: "shapes"
    value {
      list {
        shape {
        }
        shape {
        }
        shape {
          dim {
            size: -1
          }
        }
        shape {
        }
        shape {
          dim {
            size: -1
          }
        }
      }
    }
  }
  attr {
    key: "shared_name"
    value {
      s: ""
    }
  }
}
node {
  name: "train_input_fn/bucket_queue/bucket/bucket_queue_3"
  op: "PaddingFIFOQueueV2"
  attr {
    key: "_output_shapes"
    value {
      list {
        shape {
        }
      }
    }
  }
  attr {
    key: "capacity"
    value {
      i: 5512
    }
  }
  attr {
    key: "component_types"
    value {
      list {
        type: DT_INT32
        type: DT_INT32
        type: DT_STRING
        type: DT_INT32
        type: DT_STRING
      }
    }
  }
  attr {
    key: "container"
    value {
      s: ""
    }
  }
  attr {
    key: "shapes"
    value {
      list {
        shape {
        }
        shape {
        }
        shape {
          dim {
            size: -1
          }
        }
        shape {
        }
        shape {
          dim {
            size: -1
          }
        }
      }
    }
  }
  attr {
    key: "shared_name"
    value {
      s: ""
    }
  }
}
node {
  name: "train_input_fn/bucket_queue/bucket/bucket_queue_4"
  op: "PaddingFIFOQueueV2"
  attr {
    key: "_output_shapes"
    value {
      list {
        shape {
        }
      }
    }
  }
  attr {
    key: "capacity"
    value {
      i: 5512
    }
  }
  attr {
    key: "component_types"
    value {
      list {
        type: DT_INT32
        type: DT_INT32
        type: DT_STRING
        type: DT_INT32
        type: DT_STRING
      }
    }
  }
  attr {
    key: "container"
    value {
      s: ""
    }
  }
  attr {
    key: "shapes"
    value {
      list {
        shape {
        }
        shape {
        }
        shape {
          dim {
            size: -1
          }
        }
        shape {
        }
        shape {
          dim {
            size: -1
          }
        }
      }
    }
  }
  attr {
    key: "shared_name"
    value {
      s: ""
    }
  }
}
node {
  name: "train_input_fn/bucket_queue/bucket/top_queue"
  op: "PaddingFIFOQueueV2"
  attr {
    key: "_output_shapes"
    value {
      list {
        shape {
        }
      }
    }
  }
  attr {
    key: "capacity"
    value {
      i: 5512
    }
  }
  attr {
    key: "component_types"
    value {
      list {
        type: DT_INT32
        type: DT_INT32
        type: DT_INT32
        type: DT_STRING
        type: DT_INT32
        type: DT_STRING
      }
    }
  }
  attr {
    key: "container"
    value {
      s: ""
    }
  }
  attr {
    key: "shapes"
    value {
      list {
        shape {
        }
        shape {
          dim {
            size: 32
          }
        }
        shape {
          dim {
            size: 32
          }
        }
        shape {
          dim {
            size: 32
          }
          dim {
            size: -1
          }
        }
        shape {
          dim {
            size: 32
          }
        }
        shape {
          dim {
            size: 32
          }
          dim {
            size: -1
          }
        }
      }
    }
  }
  attr {
    key: "shared_name"
    value {
      s: ""
    }
  }
}
node {
  name: "train_input_fn/bucket_queue/bucket/cond/Switch"
  op: "Switch"
  input: "train_input_fn/GreaterEqual"
  input: "train_input_fn/GreaterEqual"
  attr {
    key: "T"
    value {
      type: DT_BOOL
    }
  }
  attr {
    key: "_output_shapes"
    value {
      list {
        shape {
        }
        shape {
        }
      }
    }
  }
}
node {
  name: "train_input_fn/bucket_queue/bucket/cond/switch_t"
  op: "Identity"
  input: "train_input_fn/bucket_queue/bucket/cond/Switch:1"
  attr {
    key: "T"
    value {
      type: DT_BOOL
    }
  }
  attr {
    key: "_output_shapes"
    value {
      list {
        shape {
        }
      }
    }
  }
}
node {
  name: "train_input_fn/bucket_queue/bucket/cond/switch_f"
  op: "Identity"
  input: "train_input_fn/bucket_queue/bucket/cond/Switch"
  attr {
    key: "T"
    value {
      type: DT_BOOL
    }
  }
  attr {
    key: "_output_shapes"
    value {
      list {
        shape {
        }
      }
    }
  }
}
node {
  name: "train_input_fn/bucket_queue/bucket/cond/pred_id"
  op: "Identity"
  input: "train_input_fn/GreaterEqual"
  attr {
    key: "T"
    value {
      type: DT_BOOL
    }
  }
  attr {
    key: "_output_shapes"
    value {
      list {
        shape {
        }
      }
    }
  }
}
node {
  name: "train_input_fn/bucket_queue/bucket/cond/Equal/y"
  op: "Const"
  input: "^train_input_fn/bucket_queue/bucket/cond/switch_t"
  attr {
    key: "_output_shapes"
    value {
      list {
        shape {
        }
      }
    }
  }
  attr {
    key: "dtype"
    value {
      type: DT_INT32
    }
  }
  attr {
    key: "value"
    value {
      tensor {
        dtype: DT_INT32
        tensor_shape {
        }
        int_val: 0
      }
    }
  }
}
node {
  name: "train_input_fn/bucket_queue/bucket/cond/Equal"
  op: "Equal"
  input: "train_input_fn/bucket_queue/bucket/cond/Equal/Switch:1"
  input: "train_input_fn/bucket_queue/bucket/cond/Equal/y"
  attr {
    key: "T"
    value {
      type: DT_INT32
    }
  }
  attr {
    key: "_output_shapes"
    value {
      list {
        shape {
        }
      }
    }
  }
}
node {
  name: "train_input_fn/bucket_queue/bucket/cond/Equal/Switch"
  op: "Switch"
  input: "train_input_fn/bucket_queue/ToInt32"
  input: "train_input_fn/bucket_queue/bucket/cond/pred_id"
  attr {
    key: "T"
    value {
      type: DT_INT32
    }
  }
  attr {
    key: "_class"
    value {
      list {
        s: "loc:@train_input_fn/bucket_queue/ToInt32"
      }
    }
  }
  attr {
    key: "_output_shapes"
    value {
      list {
        shape {
        }
        shape {
        }
      }
    }
  }
}
node {
  name: "train_input_fn/bucket_queue/bucket/cond/cond/Switch"
  op: "Switch"
  input: "train_input_fn/bucket_queue/bucket/cond/Equal"
  input: "train_input_fn/bucket_queue/bucket/cond/Equal"
  attr {
    key: "T"
    value {
      type: DT_BOOL
    }
  }
  attr {
    key: "_output_shapes"
    value {
      list {
        shape {
        }
        shape {
        }
      }
    }
  }
}
node {
  name: "train_input_fn/bucket_queue/bucket/cond/cond/switch_t"
  op: "Identity"
  input: "train_input_fn/bucket_queue/bucket/cond/cond/Switch:1"
  attr {
    key: "T"
    value {
      type: DT_BOOL
    }
  }
  attr {
    key: "_output_shapes"
    value {
      list {
        shape {
        }
      }
    }
  }
}
node {
  name: "train_input_fn/bucket_queue/bucket/cond/cond/switch_f"
  op: "Identity"
  input: "train_input_fn/bucket_queue/bucket/cond/cond/Switch"
  attr {
    key: "T"
    value {
      type: DT_BOOL
    }
  }
  attr {
    key: "_output_shapes"
    value {
      list {
        shape {
        }
      }
    }
  }
}
node {
  name: "train_input_fn/bucket_queue/bucket/cond/cond/pred_id"
  op: "Identity"
  input: "train_input_fn/bucket_queue/bucket/cond/Equal"
  attr {
    key: "T"
    value {
      type: DT_BOOL
    }
  }
  attr {
    key: "_output_shapes"
    value {
      list {
        shape {
        }
      }
    }
  }
}
node {
  name: "train_input_fn/bucket_queue/bucket/cond/cond/bucket_queue_0_enqueue"
  op: "QueueEnqueueV2"
  input: "train_input_fn/bucket_queue/bucket/cond/cond/bucket_queue_0_enqueue/Switch_1:1"
  input: "train_input_fn/bucket_queue/bucket/cond/cond/bucket_queue_0_enqueue/Switch_3:1"
  input: "train_input_fn/bucket_queue/bucket/cond/cond/bucket_queue_0_enqueue/Switch_3:1"
  input: "train_input_fn/bucket_queue/bucket/cond/cond/bucket_queue_0_enqueue/Switch_5:1"
  input: "train_input_fn/bucket_queue/bucket/cond/cond/bucket_queue_0_enqueue/Switch_7:1"
  input: "train_input_fn/bucket_queue/bucket/cond/cond/bucket_queue_0_enqueue/Switch_9:1"
  attr {
    key: "Tcomponents"
    value {
      list {
        type: DT_INT32
        type: DT_INT32
        type: DT_STRING
        type: DT_INT32
        type: DT_STRING
      }
    }
  }
  attr {
    key: "timeout_ms"
    value {
      i: -1
    }
  }
}
node {
  name: "train_input_fn/bucket_queue/bucket/cond/cond/bucket_queue_0_enqueue/Switch"
  op: "Switch"
  input: "train_input_fn/bucket_queue/bucket/bucket_queue_0"
  input: "train_input_fn/bucket_queue/bucket/cond/pred_id"
  attr {
    key: "T"
    value {
      type: DT_RESOURCE
    }
  }
  attr {
    key: "_class"
    value {
      list {
        s: "loc:@train_input_fn/bucket_queue/bucket/bucket_queue_0"
      }
    }
  }
  attr {
    key: "_output_shapes"
    value {
      list {
        shape {
        }
        shape {
        }
      }
    }
  }
}
node {
  name: "train_input_fn/bucket_queue/bucket/cond/cond/bucket_queue_0_enqueue/Switch_1"
  op: "Switch"
  input: "train_input_fn/bucket_queue/bucket/cond/cond/bucket_queue_0_enqueue/Switch:1"
  input: "train_input_fn/bucket_queue/bucket/cond/cond/pred_id"
  attr {
    key: "T"
    value {
      type: DT_RESOURCE
    }
  }
  attr {
    key: "_class"
    value {
      list {
        s: "loc:@train_input_fn/bucket_queue/bucket/bucket_queue_0"
      }
    }
  }
  attr {
    key: "_output_shapes"
    value {
      list {
        shape {
        }
        shape {
        }
      }
    }
  }
}
node {
  name: "train_input_fn/bucket_queue/bucket/cond/cond/bucket_queue_0_enqueue/Switch_2"
  op: "Switch"
  input: "train_input_fn/Size"
  input: "train_input_fn/bucket_queue/bucket/cond/pred_id"
  attr {
    key: "T"
    value {
      type: DT_INT32
    }
  }
  attr {
    key: "_class"
    value {
      list {
        s: "loc:@train_input_fn/Size"
      }
    }
  }
  attr {
    key: "_output_shapes"
    value {
      list {
        shape {
        }
        shape {
        }
      }
    }
  }
}
node {
  name: "train_input_fn/bucket_queue/bucket/cond/cond/bucket_queue_0_enqueue/Switch_3"
  op: "Switch"
  input: "train_input_fn/bucket_queue/bucket/cond/cond/bucket_queue_0_enqueue/Switch_2:1"
  input: "train_input_fn/bucket_queue/bucket/cond/cond/pred_id"
  attr {
    key: "T"
    value {
      type: DT_INT32
    }
  }
  attr {
    key: "_class"
    value {
      list {
        s: "loc:@train_input_fn/Size"
      }
    }
  }
  attr {
    key: "_output_shapes"
    value {
      list {
        shape {
        }
        shape {
        }
      }
    }
  }
}
node {
  name: "train_input_fn/bucket_queue/bucket/cond/cond/bucket_queue_0_enqueue/Switch_4"
  op: "Switch"
  input: "train_input_fn/concat"
  input: "train_input_fn/bucket_queue/bucket/cond/pred_id"
  attr {
    key: "T"
    value {
      type: DT_STRING
    }
  }
  attr {
    key: "_class"
    value {
      list {
        s: "loc:@train_input_fn/concat"
      }
    }
  }
  attr {
    key: "_output_shapes"
    value {
      list {
        shape {
          dim {
            size: -1
          }
        }
        shape {
          dim {
            size: -1
          }
        }
      }
    }
  }
}
node {
  name: "train_input_fn/bucket_queue/bucket/cond/cond/bucket_queue_0_enqueue/Switch_5"
  op: "Switch"
  input: "train_input_fn/bucket_queue/bucket/cond/cond/bucket_queue_0_enqueue/Switch_4:1"
  input: "train_input_fn/bucket_queue/bucket/cond/cond/pred_id"
  attr {
    key: "T"
    value {
      type: DT_STRING
    }
  }
  attr {
    key: "_class"
    value {
      list {
        s: "loc:@train_input_fn/concat"
      }
    }
  }
  attr {
    key: "_output_shapes"
    value {
      list {
        shape {
          dim {
            size: -1
          }
        }
        shape {
          dim {
            size: -1
          }
        }
      }
    }
  }
}
node {
  name: "train_input_fn/bucket_queue/bucket/cond/cond/bucket_queue_0_enqueue/Switch_6"
  op: "Switch"
  input: "train_input_fn/Size_1"
  input: "train_input_fn/bucket_queue/bucket/cond/pred_id"
  attr {
    key: "T"
    value {
      type: DT_INT32
    }
  }
  attr {
    key: "_class"
    value {
      list {
        s: "loc:@train_input_fn/Size_1"
      }
    }
  }
  attr {
    key: "_output_shapes"
    value {
      list {
        shape {
        }
        shape {
        }
      }
    }
  }
}
node {
  name: "train_input_fn/bucket_queue/bucket/cond/cond/bucket_queue_0_enqueue/Switch_7"
  op: "Switch"
  input: "train_input_fn/bucket_queue/bucket/cond/cond/bucket_queue_0_enqueue/Switch_6:1"
  input: "train_input_fn/bucket_queue/bucket/cond/cond/pred_id"
  attr {
    key: "T"
    value {
      type: DT_INT32
    }
  }
  attr {
    key: "_class"
    value {
      list {
        s: "loc:@train_input_fn/Size_1"
      }
    }
  }
  attr {
    key: "_output_shapes"
    value {
      list {
        shape {
        }
        shape {
        }
      }
    }
  }
}
node {
  name: "train_input_fn/bucket_queue/bucket/cond/cond/bucket_queue_0_enqueue/Switch_8"
  op: "Switch"
  input: "train_input_fn/concat_2"
  input: "train_input_fn/bucket_queue/bucket/cond/pred_id"
  attr {
    key: "T"
    value {
      type: DT_STRING
    }
  }
  attr {
    key: "_class"
    value {
      list {
        s: "loc:@train_input_fn/concat_2"
      }
    }
  }
  attr {
    key: "_output_shapes"
    value {
      list {
        shape {
          dim {
            size: -1
          }
        }
        shape {
          dim {
            size: -1
          }
        }
      }
    }
  }
}
node {
  name: "train_input_fn/bucket_queue/bucket/cond/cond/bucket_queue_0_enqueue/Switch_9"
  op: "Switch"
  input: "train_input_fn/bucket_queue/bucket/cond/cond/bucket_queue_0_enqueue/Switch_8:1"
  input: "train_input_fn/bucket_queue/bucket/cond/cond/pred_id"
  attr {
    key: "T"
    value {
      type: DT_STRING
    }
  }
  attr {
    key: "_class"
    value {
      list {
        s: "loc:@train_input_fn/concat_2"
      }
    }
  }
  attr {
    key: "_output_shapes"
    value {
      list {
        shape {
          dim {
            size: -1
          }
        }
        shape {
          dim {
            size: -1
          }
        }
      }
    }
  }
}
node {
  name: "train_input_fn/bucket_queue/bucket/cond/cond/control_dependency"
  op: "Identity"
  input: "train_input_fn/bucket_queue/bucket/cond/cond/switch_t"
  input: "^train_input_fn/bucket_queue/bucket/cond/cond/bucket_queue_0_enqueue"
  attr {
    key: "T"
    value {
      type: DT_BOOL
    }
  }
  attr {
    key: "_class"
    value {
      list {
        s: "loc:@train_input_fn/bucket_queue/bucket/cond/cond/switch_t"
      }
    }
  }
  attr {
    key: "_output_shapes"
    value {
      list {
        shape {
        }
      }
    }
  }
}
node {
  name: "train_input_fn/bucket_queue/bucket/cond/cond/NoOp"
  op: "NoOp"
  input: "^train_input_fn/bucket_queue/bucket/cond/cond/switch_f"
}
node {
  name: "train_input_fn/bucket_queue/bucket/cond/cond/control_dependency_1"
  op: "Identity"
  input: "train_input_fn/bucket_queue/bucket/cond/cond/switch_f"
  input: "^train_input_fn/bucket_queue/bucket/cond/cond/NoOp"
  attr {
    key: "T"
    value {
      type: DT_BOOL
    }
  }
  attr {
    key: "_class"
    value {
      list {
        s: "loc:@train_input_fn/bucket_queue/bucket/cond/cond/switch_f"
      }
    }
  }
  attr {
    key: "_output_shapes"
    value {
      list {
        shape {
        }
      }
    }
  }
}
node {
  name: "train_input_fn/bucket_queue/bucket/cond/cond/Merge"
  op: "Merge"
  input: "train_input_fn/bucket_queue/bucket/cond/cond/control_dependency_1"
  input: "train_input_fn/bucket_queue/bucket/cond/cond/control_dependency"
  attr {
    key: "N"
    value {
      i: 2
    }
  }
  attr {
    key: "T"
    value {
      type: DT_BOOL
    }
  }
  attr {
    key: "_output_shapes"
    value {
      list {
        shape {
        }
        shape {
        }
      }
    }
  }
}
node {
  name: "train_input_fn/bucket_queue/bucket/cond/Equal_1/y"
  op: "Const"
  input: "^train_input_fn/bucket_queue/bucket/cond/switch_t"
  attr {
    key: "_output_shapes"
    value {
      list {
        shape {
        }
      }
    }
  }
  attr {
    key: "dtype"
    value {
      type: DT_INT32
    }
  }
  attr {
    key: "value"
    value {
      tensor {
        dtype: DT_INT32
        tensor_shape {
        }
        int_val: 1
      }
    }
  }
}
node {
  name: "train_input_fn/bucket_queue/bucket/cond/Equal_1"
  op: "Equal"
  input: "train_input_fn/bucket_queue/bucket/cond/Equal/Switch:1"
  input: "train_input_fn/bucket_queue/bucket/cond/Equal_1/y"
  attr {
    key: "T"
    value {
      type: DT_INT32
    }
  }
  attr {
    key: "_output_shapes"
    value {
      list {
        shape {
        }
      }
    }
  }
}
node {
  name: "train_input_fn/bucket_queue/bucket/cond/cond_1/Switch"
  op: "Switch"
  input: "train_input_fn/bucket_queue/bucket/cond/Equal_1"
  input: "train_input_fn/bucket_queue/bucket/cond/Equal_1"
  attr {
    key: "T"
    value {
      type: DT_BOOL
    }
  }
  attr {
    key: "_output_shapes"
    value {
      list {
        shape {
        }
        shape {
        }
      }
    }
  }
}
node {
  name: "train_input_fn/bucket_queue/bucket/cond/cond_1/switch_t"
  op: "Identity"
  input: "train_input_fn/bucket_queue/bucket/cond/cond_1/Switch:1"
  attr {
    key: "T"
    value {
      type: DT_BOOL
    }
  }
  attr {
    key: "_output_shapes"
    value {
      list {
        shape {
        }
      }
    }
  }
}
node {
  name: "train_input_fn/bucket_queue/bucket/cond/cond_1/switch_f"
  op: "Identity"
  input: "train_input_fn/bucket_queue/bucket/cond/cond_1/Switch"
  attr {
    key: "T"
    value {
      type: DT_BOOL
    }
  }
  attr {
    key: "_output_shapes"
    value {
      list {
        shape {
        }
      }
    }
  }
}
node {
  name: "train_input_fn/bucket_queue/bucket/cond/cond_1/pred_id"
  op: "Identity"
  input: "train_input_fn/bucket_queue/bucket/cond/Equal_1"
  attr {
    key: "T"
    value {
      type: DT_BOOL
    }
  }
  attr {
    key: "_output_shapes"
    value {
      list {
        shape {
        }
      }
    }
  }
}
node {
  name: "train_input_fn/bucket_queue/bucket/cond/cond_1/bucket_queue_1_enqueue"
  op: "QueueEnqueueV2"
  input: "train_input_fn/bucket_queue/bucket/cond/cond_1/bucket_queue_1_enqueue/Switch_1:1"
  input: "train_input_fn/bucket_queue/bucket/cond/cond_1/bucket_queue_1_enqueue/Switch_2:1"
  input: "train_input_fn/bucket_queue/bucket/cond/cond_1/bucket_queue_1_enqueue/Switch_2:1"
  input: "train_input_fn/bucket_queue/bucket/cond/cond_1/bucket_queue_1_enqueue/Switch_3:1"
  input: "train_input_fn/bucket_queue/bucket/cond/cond_1/bucket_queue_1_enqueue/Switch_4:1"
  input: "train_input_fn/bucket_queue/bucket/cond/cond_1/bucket_queue_1_enqueue/Switch_5:1"
  attr {
    key: "Tcomponents"
    value {
      list {
        type: DT_INT32
        type: DT_INT32
        type: DT_STRING
        type: DT_INT32
        type: DT_STRING
      }
    }
  }
  attr {
    key: "timeout_ms"
    value {
      i: -1
    }
  }
}
node {
  name: "train_input_fn/bucket_queue/bucket/cond/cond_1/bucket_queue_1_enqueue/Switch"
  op: "Switch"
  input: "train_input_fn/bucket_queue/bucket/bucket_queue_1"
  input: "train_input_fn/bucket_queue/bucket/cond/pred_id"
  attr {
    key: "T"
    value {
      type: DT_RESOURCE
    }
  }
  attr {
    key: "_class"
    value {
      list {
        s: "loc:@train_input_fn/bucket_queue/bucket/bucket_queue_1"
      }
    }
  }
  attr {
    key: "_output_shapes"
    value {
      list {
        shape {
        }
        shape {
        }
      }
    }
  }
}
node {
  name: "train_input_fn/bucket_queue/bucket/cond/cond_1/bucket_queue_1_enqueue/Switch_1"
  op: "Switch"
  input: "train_input_fn/bucket_queue/bucket/cond/cond_1/bucket_queue_1_enqueue/Switch:1"
  input: "train_input_fn/bucket_queue/bucket/cond/cond_1/pred_id"
  attr {
    key: "T"
    value {
      type: DT_RESOURCE
    }
  }
  attr {
    key: "_class"
    value {
      list {
        s: "loc:@train_input_fn/bucket_queue/bucket/bucket_queue_1"
      }
    }
  }
  attr {
    key: "_output_shapes"
    value {
      list {
        shape {
        }
        shape {
        }
      }
    }
  }
}
node {
  name: "train_input_fn/bucket_queue/bucket/cond/cond_1/bucket_queue_1_enqueue/Switch_2"
  op: "Switch"
  input: "train_input_fn/bucket_queue/bucket/cond/cond/bucket_queue_0_enqueue/Switch_2:1"
  input: "train_input_fn/bucket_queue/bucket/cond/cond_1/pred_id"
  attr {
    key: "T"
    value {
      type: DT_INT32
    }
  }
  attr {
    key: "_class"
    value {
      list {
        s: "loc:@train_input_fn/Size"
      }
    }
  }
  attr {
    key: "_output_shapes"
    value {
      list {
        shape {
        }
        shape {
        }
      }
    }
  }
}
node {
  name: "train_input_fn/bucket_queue/bucket/cond/cond_1/bucket_queue_1_enqueue/Switch_3"
  op: "Switch"
  input: "train_input_fn/bucket_queue/bucket/cond/cond/bucket_queue_0_enqueue/Switch_4:1"
  input: "train_input_fn/bucket_queue/bucket/cond/cond_1/pred_id"
  attr {
    key: "T"
    value {
      type: DT_STRING
    }
  }
  attr {
    key: "_class"
    value {
      list {
        s: "loc:@train_input_fn/concat"
      }
    }
  }
  attr {
    key: "_output_shapes"
    value {
      list {
        shape {
          dim {
            size: -1
          }
        }
        shape {
          dim {
            size: -1
          }
        }
      }
    }
  }
}
node {
  name: "train_input_fn/bucket_queue/bucket/cond/cond_1/bucket_queue_1_enqueue/Switch_4"
  op: "Switch"
  input: "train_input_fn/bucket_queue/bucket/cond/cond/bucket_queue_0_enqueue/Switch_6:1"
  input: "train_input_fn/bucket_queue/bucket/cond/cond_1/pred_id"
  attr {
    key: "T"
    value {
      type: DT_INT32
    }
  }
  attr {
    key: "_class"
    value {
      list {
        s: "loc:@train_input_fn/Size_1"
      }
    }
  }
  attr {
    key: "_output_shapes"
    value {
      list {
        shape {
        }
        shape {
        }
      }
    }
  }
}
node {
  name: "train_input_fn/bucket_queue/bucket/cond/cond_1/bucket_queue_1_enqueue/Switch_5"
  op: "Switch"
  input: "train_input_fn/bucket_queue/bucket/cond/cond/bucket_queue_0_enqueue/Switch_8:1"
  input: "train_input_fn/bucket_queue/bucket/cond/cond_1/pred_id"
  attr {
    key: "T"
    value {
      type: DT_STRING
    }
  }
  attr {
    key: "_class"
    value {
      list {
        s: "loc:@train_input_fn/concat_2"
      }
    }
  }
  attr {
    key: "_output_shapes"
    value {
      list {
        shape {
          dim {
            size: -1
          }
        }
        shape {
          dim {
            size: -1
          }
        }
      }
    }
  }
}
node {
  name: "train_input_fn/bucket_queue/bucket/cond/cond_1/control_dependency"
  op: "Identity"
  input: "train_input_fn/bucket_queue/bucket/cond/cond_1/switch_t"
  input: "^train_input_fn/bucket_queue/bucket/cond/cond_1/bucket_queue_1_enqueue"
  attr {
    key: "T"
    value {
      type: DT_BOOL
    }
  }
  attr {
    key: "_class"
    value {
      list {
        s: "loc:@train_input_fn/bucket_queue/bucket/cond/cond_1/switch_t"
      }
    }
  }
  attr {
    key: "_output_shapes"
    value {
      list {
        shape {
        }
      }
    }
  }
}
node {
  name: "train_input_fn/bucket_queue/bucket/cond/cond_1/NoOp"
  op: "NoOp"
  input: "^train_input_fn/bucket_queue/bucket/cond/cond_1/switch_f"
}
node {
  name: "train_input_fn/bucket_queue/bucket/cond/cond_1/control_dependency_1"
  op: "Identity"
  input: "train_input_fn/bucket_queue/bucket/cond/cond_1/switch_f"
  input: "^train_input_fn/bucket_queue/bucket/cond/cond_1/NoOp"
  attr {
    key: "T"
    value {
      type: DT_BOOL
    }
  }
  attr {
    key: "_class"
    value {
      list {
        s: "loc:@train_input_fn/bucket_queue/bucket/cond/cond_1/switch_f"
      }
    }
  }
  attr {
    key: "_output_shapes"
    value {
      list {
        shape {
        }
      }
    }
  }
}
node {
  name: "train_input_fn/bucket_queue/bucket/cond/cond_1/Merge"
  op: "Merge"
  input: "train_input_fn/bucket_queue/bucket/cond/cond_1/control_dependency_1"
  input: "train_input_fn/bucket_queue/bucket/cond/cond_1/control_dependency"
  attr {
    key: "N"
    value {
      i: 2
    }
  }
  attr {
    key: "T"
    value {
      type: DT_BOOL
    }
  }
  attr {
    key: "_output_shapes"
    value {
      list {
        shape {
        }
        shape {
        }
      }
    }
  }
}
node {
  name: "train_input_fn/bucket_queue/bucket/cond/Equal_2/y"
  op: "Const"
  input: "^train_input_fn/bucket_queue/bucket/cond/switch_t"
  attr {
    key: "_output_shapes"
    value {
      list {
        shape {
        }
      }
    }
  }
  attr {
    key: "dtype"
    value {
      type: DT_INT32
    }
  }
  attr {
    key: "value"
    value {
      tensor {
        dtype: DT_INT32
        tensor_shape {
        }
        int_val: 2
      }
    }
  }
}
node {
  name: "train_input_fn/bucket_queue/bucket/cond/Equal_2"
  op: "Equal"
  input: "train_input_fn/bucket_queue/bucket/cond/Equal/Switch:1"
  input: "train_input_fn/bucket_queue/bucket/cond/Equal_2/y"
  attr {
    key: "T"
    value {
      type: DT_INT32
    }
  }
  attr {
    key: "_output_shapes"
    value {
      list {
        shape {
        }
      }
    }
  }
}
node {
  name: "train_input_fn/bucket_queue/bucket/cond/cond_2/Switch"
  op: "Switch"
  input: "train_input_fn/bucket_queue/bucket/cond/Equal_2"
  input: "train_input_fn/bucket_queue/bucket/cond/Equal_2"
  attr {
    key: "T"
    value {
      type: DT_BOOL
    }
  }
  attr {
    key: "_output_shapes"
    value {
      list {
        shape {
        }
        shape {
        }
      }
    }
  }
}
node {
  name: "train_input_fn/bucket_queue/bucket/cond/cond_2/switch_t"
  op: "Identity"
  input: "train_input_fn/bucket_queue/bucket/cond/cond_2/Switch:1"
  attr {
    key: "T"
    value {
      type: DT_BOOL
    }
  }
  attr {
    key: "_output_shapes"
    value {
      list {
        shape {
        }
      }
    }
  }
}
node {
  name: "train_input_fn/bucket_queue/bucket/cond/cond_2/switch_f"
  op: "Identity"
  input: "train_input_fn/bucket_queue/bucket/cond/cond_2/Switch"
  attr {
    key: "T"
    value {
      type: DT_BOOL
    }
  }
  attr {
    key: "_output_shapes"
    value {
      list {
        shape {
        }
      }
    }
  }
}
node {
  name: "train_input_fn/bucket_queue/bucket/cond/cond_2/pred_id"
  op: "Identity"
  input: "train_input_fn/bucket_queue/bucket/cond/Equal_2"
  attr {
    key: "T"
    value {
      type: DT_BOOL
    }
  }
  attr {
    key: "_output_shapes"
    value {
      list {
        shape {
        }
      }
    }
  }
}
node {
  name: "train_input_fn/bucket_queue/bucket/cond/cond_2/bucket_queue_2_enqueue"
  op: "QueueEnqueueV2"
  input: "train_input_fn/bucket_queue/bucket/cond/cond_2/bucket_queue_2_enqueue/Switch_1:1"
  input: "train_input_fn/bucket_queue/bucket/cond/cond_2/bucket_queue_2_enqueue/Switch_2:1"
  input: "train_input_fn/bucket_queue/bucket/cond/cond_2/bucket_queue_2_enqueue/Switch_2:1"
  input: "train_input_fn/bucket_queue/bucket/cond/cond_2/bucket_queue_2_enqueue/Switch_3:1"
  input: "train_input_fn/bucket_queue/bucket/cond/cond_2/bucket_queue_2_enqueue/Switch_4:1"
  input: "train_input_fn/bucket_queue/bucket/cond/cond_2/bucket_queue_2_enqueue/Switch_5:1"
  attr {
    key: "Tcomponents"
    value {
      list {
        type: DT_INT32
        type: DT_INT32
        type: DT_STRING
        type: DT_INT32
        type: DT_STRING
      }
    }
  }
  attr {
    key: "timeout_ms"
    value {
      i: -1
    }
  }
}
node {
  name: "train_input_fn/bucket_queue/bucket/cond/cond_2/bucket_queue_2_enqueue/Switch"
  op: "Switch"
  input: "train_input_fn/bucket_queue/bucket/bucket_queue_2"
  input: "train_input_fn/bucket_queue/bucket/cond/pred_id"
  attr {
    key: "T"
    value {
      type: DT_RESOURCE
    }
  }
  attr {
    key: "_class"
    value {
      list {
        s: "loc:@train_input_fn/bucket_queue/bucket/bucket_queue_2"
      }
    }
  }
  attr {
    key: "_output_shapes"
    value {
      list {
        shape {
        }
        shape {
        }
      }
    }
  }
}
node {
  name: "train_input_fn/bucket_queue/bucket/cond/cond_2/bucket_queue_2_enqueue/Switch_1"
  op: "Switch"
  input: "train_input_fn/bucket_queue/bucket/cond/cond_2/bucket_queue_2_enqueue/Switch:1"
  input: "train_input_fn/bucket_queue/bucket/cond/cond_2/pred_id"
  attr {
    key: "T"
    value {
      type: DT_RESOURCE
    }
  }
  attr {
    key: "_class"
    value {
      list {
        s: "loc:@train_input_fn/bucket_queue/bucket/bucket_queue_2"
      }
    }
  }
  attr {
    key: "_output_shapes"
    value {
      list {
        shape {
        }
        shape {
        }
      }
    }
  }
}
node {
  name: "train_input_fn/bucket_queue/bucket/cond/cond_2/bucket_queue_2_enqueue/Switch_2"
  op: "Switch"
  input: "train_input_fn/bucket_queue/bucket/cond/cond/bucket_queue_0_enqueue/Switch_2:1"
  input: "train_input_fn/bucket_queue/bucket/cond/cond_2/pred_id"
  attr {
    key: "T"
    value {
      type: DT_INT32
    }
  }
  attr {
    key: "_class"
    value {
      list {
        s: "loc:@train_input_fn/Size"
      }
    }
  }
  attr {
    key: "_output_shapes"
    value {
      list {
        shape {
        }
        shape {
        }
      }
    }
  }
}
node {
  name: "train_input_fn/bucket_queue/bucket/cond/cond_2/bucket_queue_2_enqueue/Switch_3"
  op: "Switch"
  input: "train_input_fn/bucket_queue/bucket/cond/cond/bucket_queue_0_enqueue/Switch_4:1"
  input: "train_input_fn/bucket_queue/bucket/cond/cond_2/pred_id"
  attr {
    key: "T"
    value {
      type: DT_STRING
    }
  }
  attr {
    key: "_class"
    value {
      list {
        s: "loc:@train_input_fn/concat"
      }
    }
  }
  attr {
    key: "_output_shapes"
    value {
      list {
        shape {
          dim {
            size: -1
          }
        }
        shape {
          dim {
            size: -1
          }
        }
      }
    }
  }
}
node {
  name: "train_input_fn/bucket_queue/bucket/cond/cond_2/bucket_queue_2_enqueue/Switch_4"
  op: "Switch"
  input: "train_input_fn/bucket_queue/bucket/cond/cond/bucket_queue_0_enqueue/Switch_6:1"
  input: "train_input_fn/bucket_queue/bucket/cond/cond_2/pred_id"
  attr {
    key: "T"
    value {
      type: DT_INT32
    }
  }
  attr {
    key: "_class"
    value {
      list {
        s: "loc:@train_input_fn/Size_1"
      }
    }
  }
  attr {
    key: "_output_shapes"
    value {
      list {
        shape {
        }
        shape {
        }
      }
    }
  }
}
node {
  name: "train_input_fn/bucket_queue/bucket/cond/cond_2/bucket_queue_2_enqueue/Switch_5"
  op: "Switch"
  input: "train_input_fn/bucket_queue/bucket/cond/cond/bucket_queue_0_enqueue/Switch_8:1"
  input: "train_input_fn/bucket_queue/bucket/cond/cond_2/pred_id"
  attr {
    key: "T"
    value {
      type: DT_STRING
    }
  }
  attr {
    key: "_class"
    value {
      list {
        s: "loc:@train_input_fn/concat_2"
      }
    }
  }
  attr {
    key: "_output_shapes"
    value {
      list {
        shape {
          dim {
            size: -1
          }
        }
        shape {
          dim {
            size: -1
          }
        }
      }
    }
  }
}
node {
  name: "train_input_fn/bucket_queue/bucket/cond/cond_2/control_dependency"
  op: "Identity"
  input: "train_input_fn/bucket_queue/bucket/cond/cond_2/switch_t"
  input: "^train_input_fn/bucket_queue/bucket/cond/cond_2/bucket_queue_2_enqueue"
  attr {
    key: "T"
    value {
      type: DT_BOOL
    }
  }
  attr {
    key: "_class"
    value {
      list {
        s: "loc:@train_input_fn/bucket_queue/bucket/cond/cond_2/switch_t"
      }
    }
  }
  attr {
    key: "_output_shapes"
    value {
      list {
        shape {
        }
      }
    }
  }
}
node {
  name: "train_input_fn/bucket_queue/bucket/cond/cond_2/NoOp"
  op: "NoOp"
  input: "^train_input_fn/bucket_queue/bucket/cond/cond_2/switch_f"
}
node {
  name: "train_input_fn/bucket_queue/bucket/cond/cond_2/control_dependency_1"
  op: "Identity"
  input: "train_input_fn/bucket_queue/bucket/cond/cond_2/switch_f"
  input: "^train_input_fn/bucket_queue/bucket/cond/cond_2/NoOp"
  attr {
    key: "T"
    value {
      type: DT_BOOL
    }
  }
  attr {
    key: "_class"
    value {
      list {
        s: "loc:@train_input_fn/bucket_queue/bucket/cond/cond_2/switch_f"
      }
    }
  }
  attr {
    key: "_output_shapes"
    value {
      list {
        shape {
        }
      }
    }
  }
}
node {
  name: "train_input_fn/bucket_queue/bucket/cond/cond_2/Merge"
  op: "Merge"
  input: "train_input_fn/bucket_queue/bucket/cond/cond_2/control_dependency_1"
  input: "train_input_fn/bucket_queue/bucket/cond/cond_2/control_dependency"
  attr {
    key: "N"
    value {
      i: 2
    }
  }
  attr {
    key: "T"
    value {
      type: DT_BOOL
    }
  }
  attr {
    key: "_output_shapes"
    value {
      list {
        shape {
        }
        shape {
        }
      }
    }
  }
}
node {
  name: "train_input_fn/bucket_queue/bucket/cond/Equal_3/y"
  op: "Const"
  input: "^train_input_fn/bucket_queue/bucket/cond/switch_t"
  attr {
    key: "_output_shapes"
    value {
      list {
        shape {
        }
      }
    }
  }
  attr {
    key: "dtype"
    value {
      type: DT_INT32
    }
  }
  attr {
    key: "value"
    value {
      tensor {
        dtype: DT_INT32
        tensor_shape {
        }
        int_val: 3
      }
    }
  }
}
node {
  name: "train_input_fn/bucket_queue/bucket/cond/Equal_3"
  op: "Equal"
  input: "train_input_fn/bucket_queue/bucket/cond/Equal/Switch:1"
  input: "train_input_fn/bucket_queue/bucket/cond/Equal_3/y"
  attr {
    key: "T"
    value {
      type: DT_INT32
    }
  }
  attr {
    key: "_output_shapes"
    value {
      list {
        shape {
        }
      }
    }
  }
}
node {
  name: "train_input_fn/bucket_queue/bucket/cond/cond_3/Switch"
  op: "Switch"
  input: "train_input_fn/bucket_queue/bucket/cond/Equal_3"
  input: "train_input_fn/bucket_queue/bucket/cond/Equal_3"
  attr {
    key: "T"
    value {
      type: DT_BOOL
    }
  }
  attr {
    key: "_output_shapes"
    value {
      list {
        shape {
        }
        shape {
        }
      }
    }
  }
}
node {
  name: "train_input_fn/bucket_queue/bucket/cond/cond_3/switch_t"
  op: "Identity"
  input: "train_input_fn/bucket_queue/bucket/cond/cond_3/Switch:1"
  attr {
    key: "T"
    value {
      type: DT_BOOL
    }
  }
  attr {
    key: "_output_shapes"
    value {
      list {
        shape {
        }
      }
    }
  }
}
node {
  name: "train_input_fn/bucket_queue/bucket/cond/cond_3/switch_f"
  op: "Identity"
  input: "train_input_fn/bucket_queue/bucket/cond/cond_3/Switch"
  attr {
    key: "T"
    value {
      type: DT_BOOL
    }
  }
  attr {
    key: "_output_shapes"
    value {
      list {
        shape {
        }
      }
    }
  }
}
node {
  name: "train_input_fn/bucket_queue/bucket/cond/cond_3/pred_id"
  op: "Identity"
  input: "train_input_fn/bucket_queue/bucket/cond/Equal_3"
  attr {
    key: "T"
    value {
      type: DT_BOOL
    }
  }
  attr {
    key: "_output_shapes"
    value {
      list {
        shape {
        }
      }
    }
  }
}
node {
  name: "train_input_fn/bucket_queue/bucket/cond/cond_3/bucket_queue_3_enqueue"
  op: "QueueEnqueueV2"
  input: "train_input_fn/bucket_queue/bucket/cond/cond_3/bucket_queue_3_enqueue/Switch_1:1"
  input: "train_input_fn/bucket_queue/bucket/cond/cond_3/bucket_queue_3_enqueue/Switch_2:1"
  input: "train_input_fn/bucket_queue/bucket/cond/cond_3/bucket_queue_3_enqueue/Switch_2:1"
  input: "train_input_fn/bucket_queue/bucket/cond/cond_3/bucket_queue_3_enqueue/Switch_3:1"
  input: "train_input_fn/bucket_queue/bucket/cond/cond_3/bucket_queue_3_enqueue/Switch_4:1"
  input: "train_input_fn/bucket_queue/bucket/cond/cond_3/bucket_queue_3_enqueue/Switch_5:1"
  attr {
    key: "Tcomponents"
    value {
      list {
        type: DT_INT32
        type: DT_INT32
        type: DT_STRING
        type: DT_INT32
        type: DT_STRING
      }
    }
  }
  attr {
    key: "timeout_ms"
    value {
      i: -1
    }
  }
}
node {
  name: "train_input_fn/bucket_queue/bucket/cond/cond_3/bucket_queue_3_enqueue/Switch"
  op: "Switch"
  input: "train_input_fn/bucket_queue/bucket/bucket_queue_3"
  input: "train_input_fn/bucket_queue/bucket/cond/pred_id"
  attr {
    key: "T"
    value {
      type: DT_RESOURCE
    }
  }
  attr {
    key: "_class"
    value {
      list {
        s: "loc:@train_input_fn/bucket_queue/bucket/bucket_queue_3"
      }
    }
  }
  attr {
    key: "_output_shapes"
    value {
      list {
        shape {
        }
        shape {
        }
      }
    }
  }
}
node {
  name: "train_input_fn/bucket_queue/bucket/cond/cond_3/bucket_queue_3_enqueue/Switch_1"
  op: "Switch"
  input: "train_input_fn/bucket_queue/bucket/cond/cond_3/bucket_queue_3_enqueue/Switch:1"
  input: "train_input_fn/bucket_queue/bucket/cond/cond_3/pred_id"
  attr {
    key: "T"
    value {
      type: DT_RESOURCE
    }
  }
  attr {
    key: "_class"
    value {
      list {
        s: "loc:@train_input_fn/bucket_queue/bucket/bucket_queue_3"
      }
    }
  }
  attr {
    key: "_output_shapes"
    value {
      list {
        shape {
        }
        shape {
        }
      }
    }
  }
}
node {
  name: "train_input_fn/bucket_queue/bucket/cond/cond_3/bucket_queue_3_enqueue/Switch_2"
  op: "Switch"
  input: "train_input_fn/bucket_queue/bucket/cond/cond/bucket_queue_0_enqueue/Switch_2:1"
  input: "train_input_fn/bucket_queue/bucket/cond/cond_3/pred_id"
  attr {
    key: "T"
    value {
      type: DT_INT32
    }
  }
  attr {
    key: "_class"
    value {
      list {
        s: "loc:@train_input_fn/Size"
      }
    }
  }
  attr {
    key: "_output_shapes"
    value {
      list {
        shape {
        }
        shape {
        }
      }
    }
  }
}
node {
  name: "train_input_fn/bucket_queue/bucket/cond/cond_3/bucket_queue_3_enqueue/Switch_3"
  op: "Switch"
  input: "train_input_fn/bucket_queue/bucket/cond/cond/bucket_queue_0_enqueue/Switch_4:1"
  input: "train_input_fn/bucket_queue/bucket/cond/cond_3/pred_id"
  attr {
    key: "T"
    value {
      type: DT_STRING
    }
  }
  attr {
    key: "_class"
    value {
      list {
        s: "loc:@train_input_fn/concat"
      }
    }
  }
  attr {
    key: "_output_shapes"
    value {
      list {
        shape {
          dim {
            size: -1
          }
        }
        shape {
          dim {
            size: -1
          }
        }
      }
    }
  }
}
node {
  name: "train_input_fn/bucket_queue/bucket/cond/cond_3/bucket_queue_3_enqueue/Switch_4"
  op: "Switch"
  input: "train_input_fn/bucket_queue/bucket/cond/cond/bucket_queue_0_enqueue/Switch_6:1"
  input: "train_input_fn/bucket_queue/bucket/cond/cond_3/pred_id"
  attr {
    key: "T"
    value {
      type: DT_INT32
    }
  }
  attr {
    key: "_class"
    value {
      list {
        s: "loc:@train_input_fn/Size_1"
      }
    }
  }
  attr {
    key: "_output_shapes"
    value {
      list {
        shape {
        }
        shape {
        }
      }
    }
  }
}
node {
  name: "train_input_fn/bucket_queue/bucket/cond/cond_3/bucket_queue_3_enqueue/Switch_5"
  op: "Switch"
  input: "train_input_fn/bucket_queue/bucket/cond/cond/bucket_queue_0_enqueue/Switch_8:1"
  input: "train_input_fn/bucket_queue/bucket/cond/cond_3/pred_id"
  attr {
    key: "T"
    value {
      type: DT_STRING
    }
  }
  attr {
    key: "_class"
    value {
      list {
        s: "loc:@train_input_fn/concat_2"
      }
    }
  }
  attr {
    key: "_output_shapes"
    value {
      list {
        shape {
          dim {
            size: -1
          }
        }
        shape {
          dim {
            size: -1
          }
        }
      }
    }
  }
}
node {
  name: "train_input_fn/bucket_queue/bucket/cond/cond_3/control_dependency"
  op: "Identity"
  input: "train_input_fn/bucket_queue/bucket/cond/cond_3/switch_t"
  input: "^train_input_fn/bucket_queue/bucket/cond/cond_3/bucket_queue_3_enqueue"
  attr {
    key: "T"
    value {
      type: DT_BOOL
    }
  }
  attr {
    key: "_class"
    value {
      list {
        s: "loc:@train_input_fn/bucket_queue/bucket/cond/cond_3/switch_t"
      }
    }
  }
  attr {
    key: "_output_shapes"
    value {
      list {
        shape {
        }
      }
    }
  }
}
node {
  name: "train_input_fn/bucket_queue/bucket/cond/cond_3/NoOp"
  op: "NoOp"
  input: "^train_input_fn/bucket_queue/bucket/cond/cond_3/switch_f"
}
node {
  name: "train_input_fn/bucket_queue/bucket/cond/cond_3/control_dependency_1"
  op: "Identity"
  input: "train_input_fn/bucket_queue/bucket/cond/cond_3/switch_f"
  input: "^train_input_fn/bucket_queue/bucket/cond/cond_3/NoOp"
  attr {
    key: "T"
    value {
      type: DT_BOOL
    }
  }
  attr {
    key: "_class"
    value {
      list {
        s: "loc:@train_input_fn/bucket_queue/bucket/cond/cond_3/switch_f"
      }
    }
  }
  attr {
    key: "_output_shapes"
    value {
      list {
        shape {
        }
      }
    }
  }
}
node {
  name: "train_input_fn/bucket_queue/bucket/cond/cond_3/Merge"
  op: "Merge"
  input: "train_input_fn/bucket_queue/bucket/cond/cond_3/control_dependency_1"
  input: "train_input_fn/bucket_queue/bucket/cond/cond_3/control_dependency"
  attr {
    key: "N"
    value {
      i: 2
    }
  }
  attr {
    key: "T"
    value {
      type: DT_BOOL
    }
  }
  attr {
    key: "_output_shapes"
    value {
      list {
        shape {
        }
        shape {
        }
      }
    }
  }
}
node {
  name: "train_input_fn/bucket_queue/bucket/cond/Equal_4/y"
  op: "Const"
  input: "^train_input_fn/bucket_queue/bucket/cond/switch_t"
  attr {
    key: "_output_shapes"
    value {
      list {
        shape {
        }
      }
    }
  }
  attr {
    key: "dtype"
    value {
      type: DT_INT32
    }
  }
  attr {
    key: "value"
    value {
      tensor {
        dtype: DT_INT32
        tensor_shape {
        }
        int_val: 4
      }
    }
  }
}
node {
  name: "train_input_fn/bucket_queue/bucket/cond/Equal_4"
  op: "Equal"
  input: "train_input_fn/bucket_queue/bucket/cond/Equal/Switch:1"
  input: "train_input_fn/bucket_queue/bucket/cond/Equal_4/y"
  attr {
    key: "T"
    value {
      type: DT_INT32
    }
  }
  attr {
    key: "_output_shapes"
    value {
      list {
        shape {
        }
      }
    }
  }
}
node {
  name: "train_input_fn/bucket_queue/bucket/cond/cond_4/Switch"
  op: "Switch"
  input: "train_input_fn/bucket_queue/bucket/cond/Equal_4"
  input: "train_input_fn/bucket_queue/bucket/cond/Equal_4"
  attr {
    key: "T"
    value {
      type: DT_BOOL
    }
  }
  attr {
    key: "_output_shapes"
    value {
      list {
        shape {
        }
        shape {
        }
      }
    }
  }
}
node {
  name: "train_input_fn/bucket_queue/bucket/cond/cond_4/switch_t"
  op: "Identity"
  input: "train_input_fn/bucket_queue/bucket/cond/cond_4/Switch:1"
  attr {
    key: "T"
    value {
      type: DT_BOOL
    }
  }
  attr {
    key: "_output_shapes"
    value {
      list {
        shape {
        }
      }
    }
  }
}
node {
  name: "train_input_fn/bucket_queue/bucket/cond/cond_4/switch_f"
  op: "Identity"
  input: "train_input_fn/bucket_queue/bucket/cond/cond_4/Switch"
  attr {
    key: "T"
    value {
      type: DT_BOOL
    }
  }
  attr {
    key: "_output_shapes"
    value {
      list {
        shape {
        }
      }
    }
  }
}
node {
  name: "train_input_fn/bucket_queue/bucket/cond/cond_4/pred_id"
  op: "Identity"
  input: "train_input_fn/bucket_queue/bucket/cond/Equal_4"
  attr {
    key: "T"
    value {
      type: DT_BOOL
    }
  }
  attr {
    key: "_output_shapes"
    value {
      list {
        shape {
        }
      }
    }
  }
}
node {
  name: "train_input_fn/bucket_queue/bucket/cond/cond_4/bucket_queue_4_enqueue"
  op: "QueueEnqueueV2"
  input: "train_input_fn/bucket_queue/bucket/cond/cond_4/bucket_queue_4_enqueue/Switch_1:1"
  input: "train_input_fn/bucket_queue/bucket/cond/cond_4/bucket_queue_4_enqueue/Switch_2:1"
  input: "train_input_fn/bucket_queue/bucket/cond/cond_4/bucket_queue_4_enqueue/Switch_2:1"
  input: "train_input_fn/bucket_queue/bucket/cond/cond_4/bucket_queue_4_enqueue/Switch_3:1"
  input: "train_input_fn/bucket_queue/bucket/cond/cond_4/bucket_queue_4_enqueue/Switch_4:1"
  input: "train_input_fn/bucket_queue/bucket/cond/cond_4/bucket_queue_4_enqueue/Switch_5:1"
  attr {
    key: "Tcomponents"
    value {
      list {
        type: DT_INT32
        type: DT_INT32
        type: DT_STRING
        type: DT_INT32
        type: DT_STRING
      }
    }
  }
  attr {
    key: "timeout_ms"
    value {
      i: -1
    }
  }
}
node {
  name: "train_input_fn/bucket_queue/bucket/cond/cond_4/bucket_queue_4_enqueue/Switch"
  op: "Switch"
  input: "train_input_fn/bucket_queue/bucket/bucket_queue_4"
  input: "train_input_fn/bucket_queue/bucket/cond/pred_id"
  attr {
    key: "T"
    value {
      type: DT_RESOURCE
    }
  }
  attr {
    key: "_class"
    value {
      list {
        s: "loc:@train_input_fn/bucket_queue/bucket/bucket_queue_4"
      }
    }
  }
  attr {
    key: "_output_shapes"
    value {
      list {
        shape {
        }
        shape {
        }
      }
    }
  }
}
node {
  name: "train_input_fn/bucket_queue/bucket/cond/cond_4/bucket_queue_4_enqueue/Switch_1"
  op: "Switch"
  input: "train_input_fn/bucket_queue/bucket/cond/cond_4/bucket_queue_4_enqueue/Switch:1"
  input: "train_input_fn/bucket_queue/bucket/cond/cond_4/pred_id"
  attr {
    key: "T"
    value {
      type: DT_RESOURCE
    }
  }
  attr {
    key: "_class"
    value {
      list {
        s: "loc:@train_input_fn/bucket_queue/bucket/bucket_queue_4"
      }
    }
  }
  attr {
    key: "_output_shapes"
    value {
      list {
        shape {
        }
        shape {
        }
      }
    }
  }
}
node {
  name: "train_input_fn/bucket_queue/bucket/cond/cond_4/bucket_queue_4_enqueue/Switch_2"
  op: "Switch"
  input: "train_input_fn/bucket_queue/bucket/cond/cond/bucket_queue_0_enqueue/Switch_2:1"
  input: "train_input_fn/bucket_queue/bucket/cond/cond_4/pred_id"
  attr {
    key: "T"
    value {
      type: DT_INT32
    }
  }
  attr {
    key: "_class"
    value {
      list {
        s: "loc:@train_input_fn/Size"
      }
    }
  }
  attr {
    key: "_output_shapes"
    value {
      list {
        shape {
        }
        shape {
        }
      }
    }
  }
}
node {
  name: "train_input_fn/bucket_queue/bucket/cond/cond_4/bucket_queue_4_enqueue/Switch_3"
  op: "Switch"
  input: "train_input_fn/bucket_queue/bucket/cond/cond/bucket_queue_0_enqueue/Switch_4:1"
  input: "train_input_fn/bucket_queue/bucket/cond/cond_4/pred_id"
  attr {
    key: "T"
    value {
      type: DT_STRING
    }
  }
  attr {
    key: "_class"
    value {
      list {
        s: "loc:@train_input_fn/concat"
      }
    }
  }
  attr {
    key: "_output_shapes"
    value {
      list {
        shape {
          dim {
            size: -1
          }
        }
        shape {
          dim {
            size: -1
          }
        }
      }
    }
  }
}
node {
  name: "train_input_fn/bucket_queue/bucket/cond/cond_4/bucket_queue_4_enqueue/Switch_4"
  op: "Switch"
  input: "train_input_fn/bucket_queue/bucket/cond/cond/bucket_queue_0_enqueue/Switch_6:1"
  input: "train_input_fn/bucket_queue/bucket/cond/cond_4/pred_id"
  attr {
    key: "T"
    value {
      type: DT_INT32
    }
  }
  attr {
    key: "_class"
    value {
      list {
        s: "loc:@train_input_fn/Size_1"
      }
    }
  }
  attr {
    key: "_output_shapes"
    value {
      list {
        shape {
        }
        shape {
        }
      }
    }
  }
}
node {
  name: "train_input_fn/bucket_queue/bucket/cond/cond_4/bucket_queue_4_enqueue/Switch_5"
  op: "Switch"
  input: "train_input_fn/bucket_queue/bucket/cond/cond/bucket_queue_0_enqueue/Switch_8:1"
  input: "train_input_fn/bucket_queue/bucket/cond/cond_4/pred_id"
  attr {
    key: "T"
    value {
      type: DT_STRING
    }
  }
  attr {
    key: "_class"
    value {
      list {
        s: "loc:@train_input_fn/concat_2"
      }
    }
  }
  attr {
    key: "_output_shapes"
    value {
      list {
        shape {
          dim {
            size: -1
          }
        }
        shape {
          dim {
            size: -1
          }
        }
      }
    }
  }
}
node {
  name: "train_input_fn/bucket_queue/bucket/cond/cond_4/control_dependency"
  op: "Identity"
  input: "train_input_fn/bucket_queue/bucket/cond/cond_4/switch_t"
  input: "^train_input_fn/bucket_queue/bucket/cond/cond_4/bucket_queue_4_enqueue"
  attr {
    key: "T"
    value {
      type: DT_BOOL
    }
  }
  attr {
    key: "_class"
    value {
      list {
        s: "loc:@train_input_fn/bucket_queue/bucket/cond/cond_4/switch_t"
      }
    }
  }
  attr {
    key: "_output_shapes"
    value {
      list {
        shape {
        }
      }
    }
  }
}
node {
  name: "train_input_fn/bucket_queue/bucket/cond/cond_4/NoOp"
  op: "NoOp"
  input: "^train_input_fn/bucket_queue/bucket/cond/cond_4/switch_f"
}
node {
  name: "train_input_fn/bucket_queue/bucket/cond/cond_4/control_dependency_1"
  op: "Identity"
  input: "train_input_fn/bucket_queue/bucket/cond/cond_4/switch_f"
  input: "^train_input_fn/bucket_queue/bucket/cond/cond_4/NoOp"
  attr {
    key: "T"
    value {
      type: DT_BOOL
    }
  }
  attr {
    key: "_class"
    value {
      list {
        s: "loc:@train_input_fn/bucket_queue/bucket/cond/cond_4/switch_f"
      }
    }
  }
  attr {
    key: "_output_shapes"
    value {
      list {
        shape {
        }
      }
    }
  }
}
node {
  name: "train_input_fn/bucket_queue/bucket/cond/cond_4/Merge"
  op: "Merge"
  input: "train_input_fn/bucket_queue/bucket/cond/cond_4/control_dependency_1"
  input: "train_input_fn/bucket_queue/bucket/cond/cond_4/control_dependency"
  attr {
    key: "N"
    value {
      i: 2
    }
  }
  attr {
    key: "T"
    value {
      type: DT_BOOL
    }
  }
  attr {
    key: "_output_shapes"
    value {
      list {
        shape {
        }
        shape {
        }
      }
    }
  }
}
node {
  name: "train_input_fn/bucket_queue/bucket/cond/group_enqueues"
  op: "NoOp"
  input: "^train_input_fn/bucket_queue/bucket/cond/cond/Merge"
  input: "^train_input_fn/bucket_queue/bucket/cond/cond_1/Merge"
  input: "^train_input_fn/bucket_queue/bucket/cond/cond_2/Merge"
  input: "^train_input_fn/bucket_queue/bucket/cond/cond_3/Merge"
  input: "^train_input_fn/bucket_queue/bucket/cond/cond_4/Merge"
  input: "^train_input_fn/bucket_queue/bucket/cond/switch_t"
}
node {
  name: "train_input_fn/bucket_queue/bucket/cond/control_dependency"
  op: "Identity"
  input: "train_input_fn/bucket_queue/bucket/cond/switch_t"
  input: "^train_input_fn/bucket_queue/bucket/cond/group_enqueues"
  attr {
    key: "T"
    value {
      type: DT_BOOL
    }
  }
  attr {
    key: "_class"
    value {
      list {
        s: "loc:@train_input_fn/bucket_queue/bucket/cond/switch_t"
      }
    }
  }
  attr {
    key: "_output_shapes"
    value {
      list {
        shape {
        }
      }
    }
  }
}
node {
  name: "train_input_fn/bucket_queue/bucket/cond/NoOp"
  op: "NoOp"
  input: "^train_input_fn/bucket_queue/bucket/cond/switch_f"
}
node {
  name: "train_input_fn/bucket_queue/bucket/cond/control_dependency_1"
  op: "Identity"
  input: "train_input_fn/bucket_queue/bucket/cond/switch_f"
  input: "^train_input_fn/bucket_queue/bucket/cond/NoOp"
  attr {
    key: "T"
    value {
      type: DT_BOOL
    }
  }
  attr {
    key: "_class"
    value {
      list {
        s: "loc:@train_input_fn/bucket_queue/bucket/cond/switch_f"
      }
    }
  }
  attr {
    key: "_output_shapes"
    value {
      list {
        shape {
        }
      }
    }
  }
}
node {
  name: "train_input_fn/bucket_queue/bucket/cond/Merge"
  op: "Merge"
  input: "train_input_fn/bucket_queue/bucket/cond/control_dependency_1"
  input: "train_input_fn/bucket_queue/bucket/cond/control_dependency"
  attr {
    key: "N"
    value {
      i: 2
    }
  }
  attr {
    key: "T"
    value {
      type: DT_BOOL
    }
  }
  attr {
    key: "_output_shapes"
    value {
      list {
        shape {
        }
        shape {
        }
      }
    }
  }
}
node {
  name: "train_input_fn/bucket_queue/bucket/Const"
  op: "Const"
  attr {
    key: "_output_shapes"
    value {
      list {
        shape {
        }
      }
    }
  }
  attr {
    key: "dtype"
    value {
      type: DT_INT32
    }
  }
  attr {
    key: "value"
    value {
      tensor {
        dtype: DT_INT32
        tensor_shape {
        }
        int_val: 0
      }
    }
  }
}
node {
  name: "train_input_fn/bucket_queue/bucket/read_bucket_0/n"
  op: "Const"
  attr {
    key: "_output_shapes"
    value {
      list {
        shape {
        }
      }
    }
  }
  attr {
    key: "dtype"
    value {
      type: DT_INT32
    }
  }
  attr {
    key: "value"
    value {
      tensor {
        dtype: DT_INT32
        tensor_shape {
        }
        int_val: 32
      }
    }
  }
}
node {
  name: "train_input_fn/bucket_queue/bucket/read_bucket_0"
  op: "QueueDequeueManyV2"
  input: "train_input_fn/bucket_queue/bucket/bucket_queue_0"
  input: "train_input_fn/bucket_queue/bucket/read_bucket_0/n"
  attr {
    key: "_output_shapes"
    value {
      list {
        shape {
          dim {
            size: 32
          }
        }
        shape {
          dim {
            size: 32
          }
        }
        shape {
          dim {
            size: 32
          }
          dim {
            size: -1
          }
        }
        shape {
          dim {
            size: 32
          }
        }
        shape {
          dim {
            size: 32
          }
          dim {
            size: -1
          }
        }
      }
    }
  }
  attr {
    key: "component_types"
    value {
      list {
        type: DT_INT32
        type: DT_INT32
        type: DT_STRING
        type: DT_INT32
        type: DT_STRING
      }
    }
  }
  attr {
    key: "timeout_ms"
    value {
      i: -1
    }
  }
}
node {
  name: "train_input_fn/bucket_queue/bucket/enqueue_from_bucket_0"
  op: "QueueEnqueueV2"
  input: "train_input_fn/bucket_queue/bucket/top_queue"
  input: "train_input_fn/bucket_queue/bucket/Const"
  input: "train_input_fn/bucket_queue/bucket/read_bucket_0"
  input: "train_input_fn/bucket_queue/bucket/read_bucket_0:1"
  input: "train_input_fn/bucket_queue/bucket/read_bucket_0:2"
  input: "train_input_fn/bucket_queue/bucket/read_bucket_0:3"
  input: "train_input_fn/bucket_queue/bucket/read_bucket_0:4"
  attr {
    key: "Tcomponents"
    value {
      list {
        type: DT_INT32
        type: DT_INT32
        type: DT_INT32
        type: DT_STRING
        type: DT_INT32
        type: DT_STRING
      }
    }
  }
  attr {
    key: "timeout_ms"
    value {
      i: -1
    }
  }
}
node {
  name: "train_input_fn/bucket_queue/bucket/Const_1"
  op: "Const"
  attr {
    key: "_output_shapes"
    value {
      list {
        shape {
        }
      }
    }
  }
  attr {
    key: "dtype"
    value {
      type: DT_INT32
    }
  }
  attr {
    key: "value"
    value {
      tensor {
        dtype: DT_INT32
        tensor_shape {
        }
        int_val: 1
      }
    }
  }
}
node {
  name: "train_input_fn/bucket_queue/bucket/read_bucket_1/n"
  op: "Const"
  attr {
    key: "_output_shapes"
    value {
      list {
        shape {
        }
      }
    }
  }
  attr {
    key: "dtype"
    value {
      type: DT_INT32
    }
  }
  attr {
    key: "value"
    value {
      tensor {
        dtype: DT_INT32
        tensor_shape {
        }
        int_val: 32
      }
    }
  }
}
node {
  name: "train_input_fn/bucket_queue/bucket/read_bucket_1"
  op: "QueueDequeueManyV2"
  input: "train_input_fn/bucket_queue/bucket/bucket_queue_1"
  input: "train_input_fn/bucket_queue/bucket/read_bucket_1/n"
  attr {
    key: "_output_shapes"
    value {
      list {
        shape {
          dim {
            size: 32
          }
        }
        shape {
          dim {
            size: 32
          }
        }
        shape {
          dim {
            size: 32
          }
          dim {
            size: -1
          }
        }
        shape {
          dim {
            size: 32
          }
        }
        shape {
          dim {
            size: 32
          }
          dim {
            size: -1
          }
        }
      }
    }
  }
  attr {
    key: "component_types"
    value {
      list {
        type: DT_INT32
        type: DT_INT32
        type: DT_STRING
        type: DT_INT32
        type: DT_STRING
      }
    }
  }
  attr {
    key: "timeout_ms"
    value {
      i: -1
    }
  }
}
node {
  name: "train_input_fn/bucket_queue/bucket/enqueue_from_bucket_1"
  op: "QueueEnqueueV2"
  input: "train_input_fn/bucket_queue/bucket/top_queue"
  input: "train_input_fn/bucket_queue/bucket/Const_1"
  input: "train_input_fn/bucket_queue/bucket/read_bucket_1"
  input: "train_input_fn/bucket_queue/bucket/read_bucket_1:1"
  input: "train_input_fn/bucket_queue/bucket/read_bucket_1:2"
  input: "train_input_fn/bucket_queue/bucket/read_bucket_1:3"
  input: "train_input_fn/bucket_queue/bucket/read_bucket_1:4"
  attr {
    key: "Tcomponents"
    value {
      list {
        type: DT_INT32
        type: DT_INT32
        type: DT_INT32
        type: DT_STRING
        type: DT_INT32
        type: DT_STRING
      }
    }
  }
  attr {
    key: "timeout_ms"
    value {
      i: -1
    }
  }
}
node {
  name: "train_input_fn/bucket_queue/bucket/Const_2"
  op: "Const"
  attr {
    key: "_output_shapes"
    value {
      list {
        shape {
        }
      }
    }
  }
  attr {
    key: "dtype"
    value {
      type: DT_INT32
    }
  }
  attr {
    key: "value"
    value {
      tensor {
        dtype: DT_INT32
        tensor_shape {
        }
        int_val: 2
      }
    }
  }
}
node {
  name: "train_input_fn/bucket_queue/bucket/read_bucket_2/n"
  op: "Const"
  attr {
    key: "_output_shapes"
    value {
      list {
        shape {
        }
      }
    }
  }
  attr {
    key: "dtype"
    value {
      type: DT_INT32
    }
  }
  attr {
    key: "value"
    value {
      tensor {
        dtype: DT_INT32
        tensor_shape {
        }
        int_val: 32
      }
    }
  }
}
node {
  name: "train_input_fn/bucket_queue/bucket/read_bucket_2"
  op: "QueueDequeueManyV2"
  input: "train_input_fn/bucket_queue/bucket/bucket_queue_2"
  input: "train_input_fn/bucket_queue/bucket/read_bucket_2/n"
  attr {
    key: "_output_shapes"
    value {
      list {
        shape {
          dim {
            size: 32
          }
        }
        shape {
          dim {
            size: 32
          }
        }
        shape {
          dim {
            size: 32
          }
          dim {
            size: -1
          }
        }
        shape {
          dim {
            size: 32
          }
        }
        shape {
          dim {
            size: 32
          }
          dim {
            size: -1
          }
        }
      }
    }
  }
  attr {
    key: "component_types"
    value {
      list {
        type: DT_INT32
        type: DT_INT32
        type: DT_STRING
        type: DT_INT32
        type: DT_STRING
      }
    }
  }
  attr {
    key: "timeout_ms"
    value {
      i: -1
    }
  }
}
node {
  name: "train_input_fn/bucket_queue/bucket/enqueue_from_bucket_2"
  op: "QueueEnqueueV2"
  input: "train_input_fn/bucket_queue/bucket/top_queue"
  input: "train_input_fn/bucket_queue/bucket/Const_2"
  input: "train_input_fn/bucket_queue/bucket/read_bucket_2"
  input: "train_input_fn/bucket_queue/bucket/read_bucket_2:1"
  input: "train_input_fn/bucket_queue/bucket/read_bucket_2:2"
  input: "train_input_fn/bucket_queue/bucket/read_bucket_2:3"
  input: "train_input_fn/bucket_queue/bucket/read_bucket_2:4"
  attr {
    key: "Tcomponents"
    value {
      list {
        type: DT_INT32
        type: DT_INT32
        type: DT_INT32
        type: DT_STRING
        type: DT_INT32
        type: DT_STRING
      }
    }
  }
  attr {
    key: "timeout_ms"
    value {
      i: -1
    }
  }
}
node {
  name: "train_input_fn/bucket_queue/bucket/Const_3"
  op: "Const"
  attr {
    key: "_output_shapes"
    value {
      list {
        shape {
        }
      }
    }
  }
  attr {
    key: "dtype"
    value {
      type: DT_INT32
    }
  }
  attr {
    key: "value"
    value {
      tensor {
        dtype: DT_INT32
        tensor_shape {
        }
        int_val: 3
      }
    }
  }
}
node {
  name: "train_input_fn/bucket_queue/bucket/read_bucket_3/n"
  op: "Const"
  attr {
    key: "_output_shapes"
    value {
      list {
        shape {
        }
      }
    }
  }
  attr {
    key: "dtype"
    value {
      type: DT_INT32
    }
  }
  attr {
    key: "value"
    value {
      tensor {
        dtype: DT_INT32
        tensor_shape {
        }
        int_val: 32
      }
    }
  }
}
node {
  name: "train_input_fn/bucket_queue/bucket/read_bucket_3"
  op: "QueueDequeueManyV2"
  input: "train_input_fn/bucket_queue/bucket/bucket_queue_3"
  input: "train_input_fn/bucket_queue/bucket/read_bucket_3/n"
  attr {
    key: "_output_shapes"
    value {
      list {
        shape {
          dim {
            size: 32
          }
        }
        shape {
          dim {
            size: 32
          }
        }
        shape {
          dim {
            size: 32
          }
          dim {
            size: -1
          }
        }
        shape {
          dim {
            size: 32
          }
        }
        shape {
          dim {
            size: 32
          }
          dim {
            size: -1
          }
        }
      }
    }
  }
  attr {
    key: "component_types"
    value {
      list {
        type: DT_INT32
        type: DT_INT32
        type: DT_STRING
        type: DT_INT32
        type: DT_STRING
      }
    }
  }
  attr {
    key: "timeout_ms"
    value {
      i: -1
    }
  }
}
node {
  name: "train_input_fn/bucket_queue/bucket/enqueue_from_bucket_3"
  op: "QueueEnqueueV2"
  input: "train_input_fn/bucket_queue/bucket/top_queue"
  input: "train_input_fn/bucket_queue/bucket/Const_3"
  input: "train_input_fn/bucket_queue/bucket/read_bucket_3"
  input: "train_input_fn/bucket_queue/bucket/read_bucket_3:1"
  input: "train_input_fn/bucket_queue/bucket/read_bucket_3:2"
  input: "train_input_fn/bucket_queue/bucket/read_bucket_3:3"
  input: "train_input_fn/bucket_queue/bucket/read_bucket_3:4"
  attr {
    key: "Tcomponents"
    value {
      list {
        type: DT_INT32
        type: DT_INT32
        type: DT_INT32
        type: DT_STRING
        type: DT_INT32
        type: DT_STRING
      }
    }
  }
  attr {
    key: "timeout_ms"
    value {
      i: -1
    }
  }
}
node {
  name: "train_input_fn/bucket_queue/bucket/Const_4"
  op: "Const"
  attr {
    key: "_output_shapes"
    value {
      list {
        shape {
        }
      }
    }
  }
  attr {
    key: "dtype"
    value {
      type: DT_INT32
    }
  }
  attr {
    key: "value"
    value {
      tensor {
        dtype: DT_INT32
        tensor_shape {
        }
        int_val: 4
      }
    }
  }
}
node {
  name: "train_input_fn/bucket_queue/bucket/read_bucket_4/n"
  op: "Const"
  attr {
    key: "_output_shapes"
    value {
      list {
        shape {
        }
      }
    }
  }
  attr {
    key: "dtype"
    value {
      type: DT_INT32
    }
  }
  attr {
    key: "value"
    value {
      tensor {
        dtype: DT_INT32
        tensor_shape {
        }
        int_val: 32
      }
    }
  }
}
node {
  name: "train_input_fn/bucket_queue/bucket/read_bucket_4"
  op: "QueueDequeueManyV2"
  input: "train_input_fn/bucket_queue/bucket/bucket_queue_4"
  input: "train_input_fn/bucket_queue/bucket/read_bucket_4/n"
  attr {
    key: "_output_shapes"
    value {
      list {
        shape {
          dim {
            size: 32
          }
        }
        shape {
          dim {
            size: 32
          }
        }
        shape {
          dim {
            size: 32
          }
          dim {
            size: -1
          }
        }
        shape {
          dim {
            size: 32
          }
        }
        shape {
          dim {
            size: 32
          }
          dim {
            size: -1
          }
        }
      }
    }
  }
  attr {
    key: "component_types"
    value {
      list {
        type: DT_INT32
        type: DT_INT32
        type: DT_STRING
        type: DT_INT32
        type: DT_STRING
      }
    }
  }
  attr {
    key: "timeout_ms"
    value {
      i: -1
    }
  }
}
node {
  name: "train_input_fn/bucket_queue/bucket/enqueue_from_bucket_4"
  op: "QueueEnqueueV2"
  input: "train_input_fn/bucket_queue/bucket/top_queue"
  input: "train_input_fn/bucket_queue/bucket/Const_4"
  input: "train_input_fn/bucket_queue/bucket/read_bucket_4"
  input: "train_input_fn/bucket_queue/bucket/read_bucket_4:1"
  input: "train_input_fn/bucket_queue/bucket/read_bucket_4:2"
  input: "train_input_fn/bucket_queue/bucket/read_bucket_4:3"
  input: "train_input_fn/bucket_queue/bucket/read_bucket_4:4"
  attr {
    key: "Tcomponents"
    value {
      list {
        type: DT_INT32
        type: DT_INT32
        type: DT_INT32
        type: DT_STRING
        type: DT_INT32
        type: DT_STRING
      }
    }
  }
  attr {
    key: "timeout_ms"
    value {
      i: -1
    }
  }
}
node {
  name: "train_input_fn/bucket_queue/bucket/top_queue_Close"
  op: "QueueCloseV2"
  input: "train_input_fn/bucket_queue/bucket/top_queue"
  attr {
    key: "cancel_pending_enqueues"
    value {
      b: false
    }
  }
}
node {
  name: "train_input_fn/bucket_queue/bucket/top_queue_Close_1"
  op: "QueueCloseV2"
  input: "train_input_fn/bucket_queue/bucket/top_queue"
  attr {
    key: "cancel_pending_enqueues"
    value {
      b: true
    }
  }
}
node {
  name: "train_input_fn/bucket_queue/bucket/bucket_queue_0_Close"
  op: "QueueCloseV2"
  input: "train_input_fn/bucket_queue/bucket/bucket_queue_0"
  attr {
    key: "cancel_pending_enqueues"
    value {
      b: false
    }
  }
}
node {
  name: "train_input_fn/bucket_queue/bucket/bucket_queue_1_Close"
  op: "QueueCloseV2"
  input: "train_input_fn/bucket_queue/bucket/bucket_queue_1"
  attr {
    key: "cancel_pending_enqueues"
    value {
      b: false
    }
  }
}
node {
  name: "train_input_fn/bucket_queue/bucket/bucket_queue_2_Close"
  op: "QueueCloseV2"
  input: "train_input_fn/bucket_queue/bucket/bucket_queue_2"
  attr {
    key: "cancel_pending_enqueues"
    value {
      b: false
    }
  }
}
node {
  name: "train_input_fn/bucket_queue/bucket/bucket_queue_3_Close"
  op: "QueueCloseV2"
  input: "train_input_fn/bucket_queue/bucket/bucket_queue_3"
  attr {
    key: "cancel_pending_enqueues"
    value {
      b: false
    }
  }
}
node {
  name: "train_input_fn/bucket_queue/bucket/bucket_queue_4_Close"
  op: "QueueCloseV2"
  input: "train_input_fn/bucket_queue/bucket/bucket_queue_4"
  attr {
    key: "cancel_pending_enqueues"
    value {
      b: false
    }
  }
}
node {
  name: "train_input_fn/bucket_queue/bucket/group_deps"
  op: "NoOp"
  input: "^train_input_fn/bucket_queue/bucket/bucket_queue_0_Close"
  input: "^train_input_fn/bucket_queue/bucket/bucket_queue_1_Close"
  input: "^train_input_fn/bucket_queue/bucket/bucket_queue_2_Close"
  input: "^train_input_fn/bucket_queue/bucket/bucket_queue_3_Close"
  input: "^train_input_fn/bucket_queue/bucket/bucket_queue_4_Close"
}
node {
  name: "train_input_fn/bucket_queue/bucket/bucket_queue_0_Close_1"
  op: "QueueCloseV2"
  input: "train_input_fn/bucket_queue/bucket/bucket_queue_0"
  attr {
    key: "cancel_pending_enqueues"
    value {
      b: true
    }
  }
}
node {
  name: "train_input_fn/bucket_queue/bucket/bucket_queue_1_Close_1"
  op: "QueueCloseV2"
  input: "train_input_fn/bucket_queue/bucket/bucket_queue_1"
  attr {
    key: "cancel_pending_enqueues"
    value {
      b: true
    }
  }
}
node {
  name: "train_input_fn/bucket_queue/bucket/bucket_queue_2_Close_1"
  op: "QueueCloseV2"
  input: "train_input_fn/bucket_queue/bucket/bucket_queue_2"
  attr {
    key: "cancel_pending_enqueues"
    value {
      b: true
    }
  }
}
node {
  name: "train_input_fn/bucket_queue/bucket/bucket_queue_3_Close_1"
  op: "QueueCloseV2"
  input: "train_input_fn/bucket_queue/bucket/bucket_queue_3"
  attr {
    key: "cancel_pending_enqueues"
    value {
      b: true
    }
  }
}
node {
  name: "train_input_fn/bucket_queue/bucket/bucket_queue_4_Close_1"
  op: "QueueCloseV2"
  input: "train_input_fn/bucket_queue/bucket/bucket_queue_4"
  attr {
    key: "cancel_pending_enqueues"
    value {
      b: true
    }
  }
}
node {
  name: "train_input_fn/bucket_queue/bucket/group_deps_1"
  op: "NoOp"
  input: "^train_input_fn/bucket_queue/bucket/bucket_queue_0_Close_1"
  input: "^train_input_fn/bucket_queue/bucket/bucket_queue_1_Close_1"
  input: "^train_input_fn/bucket_queue/bucket/bucket_queue_2_Close_1"
  input: "^train_input_fn/bucket_queue/bucket/bucket_queue_3_Close_1"
  input: "^train_input_fn/bucket_queue/bucket/bucket_queue_4_Close_1"
}
node {
  name: "train_input_fn/bucket_queue/bucket/top_queue_Size"
  op: "QueueSizeV2"
  input: "train_input_fn/bucket_queue/bucket/top_queue"
  attr {
    key: "_output_shapes"
    value {
      list {
        shape {
        }
      }
    }
  }
}
node {
  name: "train_input_fn/bucket_queue/bucket/Cast"
  op: "Cast"
  input: "train_input_fn/bucket_queue/bucket/top_queue_Size"
  attr {
    key: "DstT"
    value {
      type: DT_FLOAT
    }
  }
  attr {
    key: "SrcT"
    value {
      type: DT_INT32
    }
  }
  attr {
    key: "_output_shapes"
    value {
      list {
        shape {
        }
      }
    }
  }
}
node {
  name: "train_input_fn/bucket_queue/bucket/bucket/train_input_fn/bucket_queue/bucket/bucket_queue_0/size/tags"
  op: "Const"
  attr {
    key: "_output_shapes"
    value {
      list {
        shape {
        }
      }
    }
  }
  attr {
    key: "dtype"
    value {
      type: DT_STRING
    }
  }
  attr {
    key: "value"
    value {
      tensor {
        dtype: DT_STRING
        tensor_shape {
        }
        string_val: "train_input_fn/bucket_queue/bucket/bucket/train_input_fn/bucket_queue/bucket/bucket_queue_0/size"
      }
    }
  }
}
node {
  name: "train_input_fn/bucket_queue/bucket/bucket/train_input_fn/bucket_queue/bucket/bucket_queue_0/size"
  op: "ScalarSummary"
  input: "train_input_fn/bucket_queue/bucket/bucket/train_input_fn/bucket_queue/bucket/bucket_queue_0/size/tags"
  input: "train_input_fn/bucket_queue/bucket/Cast"
  attr {
    key: "T"
    value {
      type: DT_FLOAT
    }
  }
  attr {
    key: "_output_shapes"
    value {
      list {
        shape {
        }
      }
    }
  }
}
node {
  name: "train_input_fn/bucket_queue/bucket/top_queue_Size_1"
  op: "QueueSizeV2"
  input: "train_input_fn/bucket_queue/bucket/top_queue"
  attr {
    key: "_output_shapes"
    value {
      list {
        shape {
        }
      }
    }
  }
}
node {
  name: "train_input_fn/bucket_queue/bucket/Cast_1"
  op: "Cast"
  input: "train_input_fn/bucket_queue/bucket/top_queue_Size_1"
  attr {
    key: "DstT"
    value {
      type: DT_FLOAT
    }
  }
  attr {
    key: "SrcT"
    value {
      type: DT_INT32
    }
  }
  attr {
    key: "_output_shapes"
    value {
      list {
        shape {
        }
      }
    }
  }
}
node {
  name: "train_input_fn/bucket_queue/bucket/bucket/train_input_fn/bucket_queue/bucket/bucket_queue_1/size/tags"
  op: "Const"
  attr {
    key: "_output_shapes"
    value {
      list {
        shape {
        }
      }
    }
  }
  attr {
    key: "dtype"
    value {
      type: DT_STRING
    }
  }
  attr {
    key: "value"
    value {
      tensor {
        dtype: DT_STRING
        tensor_shape {
        }
        string_val: "train_input_fn/bucket_queue/bucket/bucket/train_input_fn/bucket_queue/bucket/bucket_queue_1/size"
      }
    }
  }
}
node {
  name: "train_input_fn/bucket_queue/bucket/bucket/train_input_fn/bucket_queue/bucket/bucket_queue_1/size"
  op: "ScalarSummary"
  input: "train_input_fn/bucket_queue/bucket/bucket/train_input_fn/bucket_queue/bucket/bucket_queue_1/size/tags"
  input: "train_input_fn/bucket_queue/bucket/Cast_1"
  attr {
    key: "T"
    value {
      type: DT_FLOAT
    }
  }
  attr {
    key: "_output_shapes"
    value {
      list {
        shape {
        }
      }
    }
  }
}
node {
  name: "train_input_fn/bucket_queue/bucket/top_queue_Size_2"
  op: "QueueSizeV2"
  input: "train_input_fn/bucket_queue/bucket/top_queue"
  attr {
    key: "_output_shapes"
    value {
      list {
        shape {
        }
      }
    }
  }
}
node {
  name: "train_input_fn/bucket_queue/bucket/Cast_2"
  op: "Cast"
  input: "train_input_fn/bucket_queue/bucket/top_queue_Size_2"
  attr {
    key: "DstT"
    value {
      type: DT_FLOAT
    }
  }
  attr {
    key: "SrcT"
    value {
      type: DT_INT32
    }
  }
  attr {
    key: "_output_shapes"
    value {
      list {
        shape {
        }
      }
    }
  }
}
node {
  name: "train_input_fn/bucket_queue/bucket/bucket/train_input_fn/bucket_queue/bucket/bucket_queue_2/size/tags"
  op: "Const"
  attr {
    key: "_output_shapes"
    value {
      list {
        shape {
        }
      }
    }
  }
  attr {
    key: "dtype"
    value {
      type: DT_STRING
    }
  }
  attr {
    key: "value"
    value {
      tensor {
        dtype: DT_STRING
        tensor_shape {
        }
        string_val: "train_input_fn/bucket_queue/bucket/bucket/train_input_fn/bucket_queue/bucket/bucket_queue_2/size"
      }
    }
  }
}
node {
  name: "train_input_fn/bucket_queue/bucket/bucket/train_input_fn/bucket_queue/bucket/bucket_queue_2/size"
  op: "ScalarSummary"
  input: "train_input_fn/bucket_queue/bucket/bucket/train_input_fn/bucket_queue/bucket/bucket_queue_2/size/tags"
  input: "train_input_fn/bucket_queue/bucket/Cast_2"
  attr {
    key: "T"
    value {
      type: DT_FLOAT
    }
  }
  attr {
    key: "_output_shapes"
    value {
      list {
        shape {
        }
      }
    }
  }
}
node {
  name: "train_input_fn/bucket_queue/bucket/top_queue_Size_3"
  op: "QueueSizeV2"
  input: "train_input_fn/bucket_queue/bucket/top_queue"
  attr {
    key: "_output_shapes"
    value {
      list {
        shape {
        }
      }
    }
  }
}
node {
  name: "train_input_fn/bucket_queue/bucket/Cast_3"
  op: "Cast"
  input: "train_input_fn/bucket_queue/bucket/top_queue_Size_3"
  attr {
    key: "DstT"
    value {
      type: DT_FLOAT
    }
  }
  attr {
    key: "SrcT"
    value {
      type: DT_INT32
    }
  }
  attr {
    key: "_output_shapes"
    value {
      list {
        shape {
        }
      }
    }
  }
}
node {
  name: "train_input_fn/bucket_queue/bucket/bucket/train_input_fn/bucket_queue/bucket/bucket_queue_3/size/tags"
  op: "Const"
  attr {
    key: "_output_shapes"
    value {
      list {
        shape {
        }
      }
    }
  }
  attr {
    key: "dtype"
    value {
      type: DT_STRING
    }
  }
  attr {
    key: "value"
    value {
      tensor {
        dtype: DT_STRING
        tensor_shape {
        }
        string_val: "train_input_fn/bucket_queue/bucket/bucket/train_input_fn/bucket_queue/bucket/bucket_queue_3/size"
      }
    }
  }
}
node {
  name: "train_input_fn/bucket_queue/bucket/bucket/train_input_fn/bucket_queue/bucket/bucket_queue_3/size"
  op: "ScalarSummary"
  input: "train_input_fn/bucket_queue/bucket/bucket/train_input_fn/bucket_queue/bucket/bucket_queue_3/size/tags"
  input: "train_input_fn/bucket_queue/bucket/Cast_3"
  attr {
    key: "T"
    value {
      type: DT_FLOAT
    }
  }
  attr {
    key: "_output_shapes"
    value {
      list {
        shape {
        }
      }
    }
  }
}
node {
  name: "train_input_fn/bucket_queue/bucket/top_queue_Size_4"
  op: "QueueSizeV2"
  input: "train_input_fn/bucket_queue/bucket/top_queue"
  attr {
    key: "_output_shapes"
    value {
      list {
        shape {
        }
      }
    }
  }
}
node {
  name: "train_input_fn/bucket_queue/bucket/Cast_4"
  op: "Cast"
  input: "train_input_fn/bucket_queue/bucket/top_queue_Size_4"
  attr {
    key: "DstT"
    value {
      type: DT_FLOAT
    }
  }
  attr {
    key: "SrcT"
    value {
      type: DT_INT32
    }
  }
  attr {
    key: "_output_shapes"
    value {
      list {
        shape {
        }
      }
    }
  }
}
node {
  name: "train_input_fn/bucket_queue/bucket/bucket/train_input_fn/bucket_queue/bucket/bucket_queue_4/size/tags"
  op: "Const"
  attr {
    key: "_output_shapes"
    value {
      list {
        shape {
        }
      }
    }
  }
  attr {
    key: "dtype"
    value {
      type: DT_STRING
    }
  }
  attr {
    key: "value"
    value {
      tensor {
        dtype: DT_STRING
        tensor_shape {
        }
        string_val: "train_input_fn/bucket_queue/bucket/bucket/train_input_fn/bucket_queue/bucket/bucket_queue_4/size"
      }
    }
  }
}
node {
  name: "train_input_fn/bucket_queue/bucket/bucket/train_input_fn/bucket_queue/bucket/bucket_queue_4/size"
  op: "ScalarSummary"
  input: "train_input_fn/bucket_queue/bucket/bucket/train_input_fn/bucket_queue/bucket/bucket_queue_4/size/tags"
  input: "train_input_fn/bucket_queue/bucket/Cast_4"
  attr {
    key: "T"
    value {
      type: DT_FLOAT
    }
  }
  attr {
    key: "_output_shapes"
    value {
      list {
        shape {
        }
      }
    }
  }
}
node {
  name: "train_input_fn/bucket_queue/bucket/top_queue_Size_5"
  op: "QueueSizeV2"
  input: "train_input_fn/bucket_queue/bucket/top_queue"
  attr {
    key: "_output_shapes"
    value {
      list {
        shape {
        }
      }
    }
  }
}
node {
  name: "train_input_fn/bucket_queue/bucket/Cast_5"
  op: "Cast"
  input: "train_input_fn/bucket_queue/bucket/top_queue_Size_5"
  attr {
    key: "DstT"
    value {
      type: DT_FLOAT
    }
  }
  attr {
    key: "SrcT"
    value {
      type: DT_INT32
    }
  }
  attr {
    key: "_output_shapes"
    value {
      list {
        shape {
        }
      }
    }
  }
}
node {
  name: "train_input_fn/bucket_queue/bucket/mul/y"
  op: "Const"
  attr {
    key: "_output_shapes"
    value {
      list {
        shape {
        }
      }
    }
  }
  attr {
    key: "dtype"
    value {
      type: DT_FLOAT
    }
  }
  attr {
    key: "value"
    value {
      tensor {
        dtype: DT_FLOAT
        tensor_shape {
        }
        float_val: 0.0001814223505789414
      }
    }
  }
}
node {
  name: "train_input_fn/bucket_queue/bucket/mul"
  op: "Mul"
  input: "train_input_fn/bucket_queue/bucket/Cast_5"
  input: "train_input_fn/bucket_queue/bucket/mul/y"
  attr {
    key: "T"
    value {
      type: DT_FLOAT
    }
  }
  attr {
    key: "_output_shapes"
    value {
      list {
        shape {
        }
      }
    }
  }
}
node {
  name: "train_input_fn/bucket_queue/bucket/bucket/train_input_fn/bucket_queue/bucket/top_queue/fraction_of_5512_full/tags"
  op: "Const"
  attr {
    key: "_output_shapes"
    value {
      list {
        shape {
        }
      }
    }
  }
  attr {
    key: "dtype"
    value {
      type: DT_STRING
    }
  }
  attr {
    key: "value"
    value {
      tensor {
        dtype: DT_STRING
        tensor_shape {
        }
        string_val: "…"
      }
    }
  }
}
node {
  name: "train_input_fn/bucket_queue/bucket/bucket/train_input_fn/bucket_queue/bucket/top_queue/fraction_of_5512_full"
  op: "ScalarSummary"
  input: "train_input_fn/bucket_queue/bucket/bucket/train_input_fn/bucket_queue/bucket/top_queue/fraction_of_5512_full/tags"
  input: "train_input_fn/bucket_queue/bucket/mul"
  attr {
    key: "T"
    value {
      type: DT_FLOAT
    }
  }
  attr {
    key: "_output_shapes"
    value {
      list {
        shape {
        }
      }
    }
  }
}
node {
  name: "train_input_fn/bucket_queue/bucket/dequeue_top"
  op: "QueueDequeueV2"
  input: "train_input_fn/bucket_queue/bucket/top_queue"
  attr {
    key: "_output_shapes"
    value {
      list {
        shape {
        }
        shape {
          dim {
            size: 32
          }
        }
        shape {
          dim {
            size: 32
          }
        }
        shape {
          dim {
            size: 32
          }
          dim {
            size: -1
          }
        }
        shape {
          dim {
            size: 32
          }
        }
        shape {
          dim {
            size: 32
          }
          dim {
            size: -1
          }
        }
      }
    }
  }
  attr {
    key: "component_types"
    value {
      list {
        type: DT_INT32
        type: DT_INT32
        type: DT_INT32
        type: DT_STRING
        type: DT_INT32
        type: DT_STRING
      }
    }
  }
  attr {
    key: "timeout_ms"
    value {
      i: -1
    }
  }
}
node {
  name: "global_step/IsVariableInitialized"
  op: "IsVariableInitialized"
  input: "global_step"
  attr {
    key: "_class"
    value {
      list {
        s: "loc:@global_step"
      }
    }
  }
  attr {
    key: "_output_shapes"
    value {
      list {
        shape {
        }
      }
    }
  }
  attr {
    key: "dtype"
    value {
      type: DT_INT64
    }
  }
}
node {
  name: "global_step/cond/Switch"
  op: "Switch"
  input: "global_step/IsVariableInitialized"
  input: "global_step/IsVariableInitialized"
  attr {
    key: "T"
    value {
      type: DT_BOOL
    }
  }
  attr {
    key: "_output_shapes"
    value {
      list {
        shape {
        }
        shape {
        }
      }
    }
  }
}
node {
  name: "global_step/cond/switch_t"
  op: "Identity"
  input: "global_step/cond/Switch:1"
  attr {
    key: "T"
    value {
      type: DT_BOOL
    }
  }
  attr {
    key: "_output_shapes"
    value {
      list {
        shape {
        }
      }
    }
  }
}
node {
  name: "global_step/cond/switch_f"
  op: "Identity"
  input: "global_step/cond/Switch"
  attr {
    key: "T"
    value {
      type: DT_BOOL
    }
  }
  attr {
    key: "_output_shapes"
    value {
      list {
        shape {
        }
      }
    }
  }
}
node {
  name: "global_step/cond/pred_id"
  op: "Identity"
  input: "global_step/IsVariableInitialized"
  attr {
    key: "T"
    value {
      type: DT_BOOL
    }
  }
  attr {
    key: "_output_shapes"
    value {
      list {
        shape {
        }
      }
    }
  }
}
node {
  name: "global_step/cond/read"
  op: "Identity"
  input: "global_step/cond/read/Switch:1"
  attr {
    key: "T"
    value {
      type: DT_INT64
    }
  }
  attr {
    key: "_output_shapes"
    value {
      list {
        shape {
        }
      }
    }
  }
}
node {
  name: "global_step/cond/read/Switch"
  op: "RefSwitch"
  input: "global_step"
  input: "global_step/cond/pred_id"
  attr {
    key: "T"
    value {
      type: DT_INT64
    }
  }
  attr {
    key: "_class"
    value {
      list {
        s: "loc:@global_step"
      }
    }
  }
  attr {
    key: "_output_shapes"
    value {
      list {
        shape {
        }
        shape {
        }
      }
    }
  }
}
node {
  name: "global_step/cond/Switch_1"
  op: "Switch"
  input: "global_step/Initializer/zeros"
  input: "global_step/cond/pred_id"
  attr {
    key: "T"
    value {
      type: DT_INT64
    }
  }
  attr {
    key: "_class"
    value {
      list {
        s: "loc:@global_step"
      }
    }
  }
  attr {
    key: "_output_shapes"
    value {
      list {
        shape {
        }
        shape {
        }
      }
    }
  }
}
node {
  name: "global_step/cond/Merge"
  op: "Merge"
  input: "global_step/cond/Switch_1"
  input: "global_step/cond/read"
  attr {
    key: "N"
    value {
      i: 2
    }
  }
  attr {
    key: "T"
    value {
      type: DT_INT64
    }
  }
  attr {
    key: "_output_shapes"
    value {
      list {
        shape {
        }
        shape {
        }
      }
    }
  }
}
node {
  name: "global_step/add/y"
  op: "Const"
  attr {
    key: "_output_shapes"
    value {
      list {
        shape {
        }
      }
    }
  }
  attr {
    key: "dtype"
    value {
      type: DT_INT64
    }
  }
  attr {
    key: "value"
    value {
      tensor {
        dtype: DT_INT64
        tensor_shape {
        }
        int64_val: 0
      }
    }
  }
}
node {
  name: "global_step/add"
  op: "Add"
  input: "global_step/cond/Merge"
  input: "global_step/add/y"
  attr {
    key: "T"
    value {
      type: DT_INT64
    }
  }
  attr {
    key: "_output_shapes"
    value {
      list {
        shape {
        }
      }
    }
  }
}
node {
  name: "model/att_seq2seq/Const"
  op: "Const"
  attr {
    key: "_output_shapes"
    value {
      list {
        shape {
          dim {
            size: 88
          }
        }
      }
    }
  }
  attr {
    key: "dtype"
    value {
      type: DT_STRING
    }
  }
  attr {
    key: "value"
    value {
      tensor {
        dtype: DT_STRING
        tensor_shape {
          dim {
            size: 88
          }
        }
        string_val: "\""
        string_val: " "
        string_val: ":"
        string_val: ","
        string_val: "0"
        string_val: "n"
        string_val: "u"
        string_val: "m"
        string_val: "1"
        string_val: "r"
        string_val: "t"
        string_val: "s"
        string_val: "2"
        string_val: "3"
        string_val: "5"
        string_val: "4"
        string_val: "l"
        string_val: "e"
        string_val: "7"
        string_val: "o"
        string_val: "6"
        string_val: "a"
        string_val: "i"
        string_val: "8"
        string_val: "9"
        string_val: "A"
        string_val: "N"
        string_val: "-"
        string_val: "S"
        string_val: "R"
        string_val: "E"
        string_val: "."
        string_val: "c"
        string_val: "I"
        string_val: "}"
        string_val: "{"
        string_val: "]"
        string_val: "["
        string_val: "L"
        string_val: "/"
        string_val: "T"
        string_val: "C"
        string_val: "D"
        string_val: "d"
        string_val: "O"
        string_val: "y"
        string_val: "p"
        string_val: "M"
        string_val: "h"
        string_val: "H"
        string_val: "P"
        string_val: "g"
        string_val: "B"
        string_val: "U"
        string_val: "F"
        string_val: "k"
        string_val: "b"
        string_val: "G"
        string_val: "v"
        string_val: "w"
        string_val: "W"
        string_val: "K"
        string_val: "f"
        string_val: "J"
        string_val: "Y"
        string_val: "V"
        string_val: "x"
        string_val: "Z"
        string_val: "X"
        string_val: "z"
        string_val: ")"
        string_val: "("
        string_val: "\'"
        string_val: "*"
        string_val: "j"
        string_val: "q"
        string_val: "&"
        string_val: "\\"
        string_val: "Q"
        string_val: "!"
        string_val: "?"
        string_val: "+"
        string_val: "@"
        string_val: "#"
        string_val: "$"
        string_val: "UNK"
        string_val: "SEQUENCE_START"
        string_val: "SEQUENCE_END"
      }
    }
  }
}
node {
  name: "model/att_seq2seq/Const_1"
  op: "Const"
  attr {
    key: "_output_shapes"
    value {
      list {
        shape {
          dim {
            size: 88
          }
        }
      }
    }
  }
  attr {
    key: "dtype"
    value {
      type: DT_FLOAT
    }
  }
  attr {
    key: "value"
    value {
      tensor {
        dtype: DT_FLOAT
        tensor_shape {
          dim {
            size: 88
          }
        }
        tensor_content: "…"
      }
    }
  }
}
node {
  name: "model/att_seq2seq/range/start"
  op: "Const"
  attr {
    key: "_output_shapes"
    value {
      list {
        shape {
        }
      }
    }
  }
  attr {
    key: "dtype"
    value {
      type: DT_INT64
    }
  }
  attr {
    key: "value"
    value {
      tensor {
        dtype: DT_INT64
        tensor_shape {
        }
        int64_val: 0
      }
    }
  }
}
node {
  name: "model/att_seq2seq/range/limit"
  op: "Const"
  attr {
    key: "_output_shapes"
    value {
      list {
        shape {
        }
      }
    }
  }
  attr {
    key: "dtype"
    value {
      type: DT_INT64
    }
  }
  attr {
    key: "value"
    value {
      tensor {
        dtype: DT_INT64
        tensor_shape {
        }
        int64_val: 88
      }
    }
  }
}
node {
  name: "model/att_seq2seq/range/delta"
  op: "Const"
  attr {
    key: "_output_shapes"
    value {
      list {
        shape {
        }
      }
    }
  }
  attr {
    key: "dtype"
    value {
      type: DT_INT64
    }
  }
  attr {
    key: "value"
    value {
      tensor {
        dtype: DT_INT64
        tensor_shape {
        }
        int64_val: 1
      }
    }
  }
}
node {
  name: "model/att_seq2seq/range"
  op: "Range"
  input: "model/att_seq2seq/range/start"
  input: "model/att_seq2seq/range/limit"
  input: "model/att_seq2seq/range/delta"
  attr {
    key: "Tidx"
    value {
      type: DT_INT64
    }
  }
  attr {
    key: "_output_shapes"
    value {
      list {
        shape {
          dim {
            size: 88
          }
        }
      }
    }
  }
}
node {
  name: "model/att_seq2seq/hash_table"
  op: "HashTableV2"
  attr {
    key: "_output_shapes"
    value {
      list {
        shape {
        }
      }
    }
  }
  attr {
    key: "container"
    value {
      s: ""
    }
  }
  attr {
    key: "key_dtype"
    value {
      type: DT_INT64
    }
  }
  attr {
    key: "shared_name"
    value {
      s: ""
    }
  }
  attr {
    key: "use_node_name_sharing"
    value {
      b: false
    }
  }
  attr {
    key: "value_dtype"
    value {
      type: DT_STRING
    }
  }
}
node {
  name: "model/att_seq2seq/hash_table/Const"
  op: "Const"
  attr {
    key: "_output_shapes"
    value {
      list {
        shape {
        }
      }
    }
  }
  attr {
    key: "dtype"
    value {
      type: DT_STRING
    }
  }
  attr {
    key: "value"
    value {
      tensor {
        dtype: DT_STRING
        tensor_shape {
        }
        string_val: "UNK"
      }
    }
  }
}
node {
  name: "model/att_seq2seq/key_value_init"
  op: "InitializeTableV2"
  input: "model/att_seq2seq/hash_table"
  input: "model/att_seq2seq/range"
  input: "model/att_seq2seq/Const"
  attr {
    key: "Tkey"
    value {
      type: DT_INT64
    }
  }
  attr {
    key: "Tval"
    value {
      type: DT_STRING
    }
  }
}
node {
  name: "model/att_seq2seq/hash_table_1"
  op: "HashTableV2"
  attr {
    key: "_output_shapes"
    value {
      list {
        shape {
        }
      }
    }
  }
  attr {
    key: "container"
    value {
      s: ""
    }
  }
  attr {
    key: "key_dtype"
    value {
      type: DT_STRING
    }
  }
  attr {
    key: "shared_name"
    value {
      s: ""
    }
  }
  attr {
    key: "use_node_name_sharing"
    value {
      b: false
    }
  }
  attr {
    key: "value_dtype"
    value {
      type: DT_INT64
    }
  }
}
node {
  name: "model/att_seq2seq/hash_table_1/Const"
  op: "Const"
  attr {
    key: "_output_shapes"
    value {
      list {
        shape {
        }
      }
    }
  }
  attr {
    key: "dtype"
    value {
      type: DT_INT64
    }
  }
  attr {
    key: "value"
    value {
      tensor {
        dtype: DT_INT64
        tensor_shape {
        }
        int64_val: 85
      }
    }
  }
}
node {
  name: "model/att_seq2seq/key_value_init_1"
  op: "InitializeTableV2"
  input: "model/att_seq2seq/hash_table_1"
  input: "model/att_seq2seq/Const"
  input: "model/att_seq2seq/range"
  attr {
    key: "Tkey"
    value {
      type: DT_STRING
    }
  }
  attr {
    key: "Tval"
    value {
      type: DT_INT64
    }
  }
}
node {
  name: "model/att_seq2seq/hash_table_2"
  op: "HashTableV2"
  attr {
    key: "_output_shapes"
    value {
      list {
        shape {
        }
      }
    }
  }
  attr {
    key: "container"
    value {
      s: ""
    }
  }
  attr {
    key: "key_dtype"
    value {
      type: DT_STRING
    }
  }
  attr {
    key: "shared_name"
    value {
      s: ""
    }
  }
  attr {
    key: "use_node_name_sharing"
    value {
      b: false
    }
  }
  attr {
    key: "value_dtype"
    value {
      type: DT_FLOAT
    }
  }
}
node {
  name: "model/att_seq2seq/hash_table_2/Const"
  op: "Const"
  attr {
    key: "_output_shapes"
    value {
      list {
        shape {
        }
      }
    }
  }
  attr {
    key: "dtype"
    value {
      type: DT_FLOAT
    }
  }
  attr {
    key: "value"
    value {
      tensor {
        dtype: DT_FLOAT
        tensor_shape {
        }
        float_val: -1.0
      }
    }
  }
}
node {
  name: "model/att_seq2seq/key_value_init_2"
  op: "InitializeTableV2"
  input: "model/att_seq2seq/hash_table_2"
  input: "model/att_seq2seq/Const"
  input: "model/att_seq2seq/Const_1"
  attr {
    key: "Tkey"
    value {
      type: DT_STRING
    }
  }
  attr {
    key: "Tval"
    value {
      type: DT_FLOAT
    }
  }
}
node {
  name: "model/att_seq2seq/Const_2"
  op: "Const"
  attr {
    key: "_output_shapes"
    value {
      list {
        shape {
          dim {
            size: 46
          }
        }
      }
    }
  }
  attr {
    key: "dtype"
    value {
      type: DT_STRING
    }
  }
  attr {
    key: "value"
    value {
      tensor {
        dtype: DT_STRING
        tensor_shape {
          dim {
            size: 46
          }
        }
        string_val: "\""
        string_val: " "
        string_val: "e"
        string_val: "t"
        string_val: ":"
        string_val: "i"
        string_val: "n"
        string_val: ","
        string_val: "a"
        string_val: "r"
        string_val: "l"
        string_val: "d"
        string_val: "u"
        string_val: "}"
        string_val: "{"
        string_val: "p"
        string_val: "y"
        string_val: "g"
        string_val: "m"
        string_val: "o"
        string_val: "c"
        string_val: "f"
        string_val: "v"
        string_val: "s"
        string_val: "q"
        string_val: "k"
        string_val: "x"
        string_val: "b"
        string_val: "T"
        string_val: "*"
        string_val: "1"
        string_val: "0"
        string_val: "2"
        string_val: "3"
        string_val: "5"
        string_val: "4"
        string_val: "8"
        string_val: "U"
        string_val: "7"
        string_val: "6"
        string_val: "z"
        string_val: "9"
        string_val: "h"
        string_val: "UNK"
        string_val: "SEQUENCE_START"
        string_val: "SEQUENCE_END"
      }
    }
  }
}
node {
  name: "model/att_seq2seq/Const_3"
  op: "Const"
  attr {
    key: "_output_shapes"
    value {
      list {
        shape {
          dim {
            size: 46
          }
        }
      }
    }
  }
  attr {
    key: "dtype"
    value {
      type: DT_FLOAT
    }
  }
  attr {
    key: "value"
    value {
      tensor {
        dtype: DT_FLOAT
        tensor_shape {
          dim {
            size: 46
          }
        }
        tensor_content: "…"
      }
    }
  }
}
node {
  name: "model/att_seq2seq/range_1/start"
  op: "Const"
  attr {
    key: "_output_shapes"
    value {
      list {
        shape {
        }
      }
    }
  }
  attr {
    key: "dtype"
    value {
      type: DT_INT64
    }
  }
  attr {
    key: "value"
    value {
      tensor {
        dtype: DT_INT64
        tensor_shape {
        }
        int64_val: 0
      }
    }
  }
}
node {
  name: "model/att_seq2seq/range_1/limit"
  op: "Const"
  attr {
    key: "_output_shapes"
    value {
      list {
        shape {
        }
      }
    }
  }
  attr {
    key: "dtype"
    value {
      type: DT_INT64
    }
  }
  attr {
    key: "value"
    value {
      tensor {
        dtype: DT_INT64
        tensor_shape {
        }
        int64_val: 46
      }
    }
  }
}
node {
  name: "model/att_seq2seq/range_1/delta"
  op: "Const"
  attr {
    key: "_output_shapes"
    value {
      list {
        shape {
        }
      }
    }
  }
  attr {
    key: "dtype"
    value {
      type: DT_INT64
    }
  }
  attr {
    key: "value"
    value {
      tensor {
        dtype: DT_INT64
        tensor_shape {
        }
        int64_val: 1
      }
    }
  }
}
node {
  name: "model/att_seq2seq/range_1"
  op: "Range"
  input: "model/att_seq2seq/range_1/start"
  input: "model/att_seq2seq/range_1/limit"
  input: "model/att_seq2seq/range_1/delta"
  attr {
    key: "Tidx"
    value {
      type: DT_INT64
    }
  }
  attr {
    key: "_output_shapes"
    value {
      list {
        shape {
          dim {
            size: 46
          }
        }
      }
    }
  }
}
node {
  name: "model/att_seq2seq/hash_table_3"
  op: "HashTableV2"
  attr {
    key: "_output_shapes"
    value {
      list {
        shape {
        }
      }
    }
  }
  attr {
    key: "container"
    value {
      s: ""
    }
  }
  attr {
    key: "key_dtype"
    value {
      type: DT_INT64
    }
  }
  attr {
    key: "shared_name"
    value {
      s: ""
    }
  }
  attr {
    key: "use_node_name_sharing"
    value {
      b: false
    }
  }
  attr {
    key: "value_dtype"
    value {
      type: DT_STRING
    }
  }
}
node {
  name: "model/att_seq2seq/hash_table_3/Const"
  op: "Const"
  attr {
    key: "_output_shapes"
    value {
      list {
        shape {
        }
      }
    }
  }
  attr {
    key: "dtype"
    value {
      type: DT_STRING
    }
  }
  attr {
    key: "value"
    value {
      tensor {
        dtype: DT_STRING
        tensor_shape {
        }
        string_val: "UNK"
      }
    }
  }
}
node {
  name: "model/att_seq2seq/key_value_init_3"
  op: "InitializeTableV2"
  input: "model/att_seq2seq/hash_table_3"
  input: "model/att_seq2seq/range_1"
  input: "model/att_seq2seq/Const_2"
  attr {
    key: "Tkey"
    value {
      type: DT_INT64
    }
  }
  attr {
    key: "Tval"
    value {
      type: DT_STRING
    }
  }
}
node {
  name: "model/att_seq2seq/hash_table_4"
  op: "HashTableV2"
  attr {
    key: "_output_shapes"
    value {
      list {
        shape {
        }
      }
    }
  }
  attr {
    key: "container"
    value {
      s: ""
    }
  }
  attr {
    key: "key_dtype"
    value {
      type: DT_STRING
    }
  }
  attr {
    key: "shared_name"
    value {
      s: ""
    }
  }
  attr {
    key: "use_node_name_sharing"
    value {
      b: false
    }
  }
  attr {
    key: "value_dtype"
    value {
      type: DT_INT64
    }
  }
}
node {
  name: "model/att_seq2seq/hash_table_4/Const"
  op: "Const"
  attr {
    key: "_output_shapes"
    value {
      list {
        shape {
        }
      }
    }
  }
  attr {
    key: "dtype"
    value {
      type: DT_INT64
    }
  }
  attr {
    key: "value"
    value {
      tensor {
        dtype: DT_INT64
        tensor_shape {
        }
        int64_val: 43
      }
    }
  }
}
node {
  name: "model/att_seq2seq/key_value_init_4"
  op: "InitializeTableV2"
  input: "model/att_seq2seq/hash_table_4"
  input: "model/att_seq2seq/Const_2"
  input: "model/att_seq2seq/range_1"
  attr {
    key: "Tkey"
    value {
      type: DT_STRING
    }
  }
  attr {
    key: "Tval"
    value {
      type: DT_INT64
    }
  }
}
node {
  name: "model/att_seq2seq/hash_table_5"
  op: "HashTableV2"
  attr {
    key: "_output_shapes"
    value {
      list {
        shape {
        }
      }
    }
  }
  attr {
    key: "container"
    value {
      s: ""
    }
  }
  attr {
    key: "key_dtype"
    value {
      type: DT_STRING
    }
  }
  attr {
    key: "shared_name"
    value {
      s: ""
    }
  }
  attr {
    key: "use_node_name_sharing"
    value {
      b: false
    }
  }
  attr {
    key: "value_dtype"
    value {
      type: DT_FLOAT
    }
  }
}
node {
  name: "model/att_seq2seq/hash_table_5/Const"
  op: "Const"
  attr {
    key: "_output_shapes"
    value {
      list {
        shape {
        }
      }
    }
  }
  attr {
    key: "dtype"
    value {
      type: DT_FLOAT
    }
  }
  attr {
    key: "value"
    value {
      tensor {
        dtype: DT_FLOAT
        tensor_shape {
        }
        float_val: -1.0
      }
    }
  }
}
node {
  name: "model/att_seq2seq/key_value_init_5"
  op: "InitializeTableV2"
  input: "model/att_seq2seq/hash_table_5"
  input: "model/att_seq2seq/Const_2"
  input: "model/att_seq2seq/Const_3"
  attr {
    key: "Tkey"
    value {
      type: DT_STRING
    }
  }
  attr {
    key: "Tval"
    value {
      type: DT_FLOAT
    }
  }
}
node {
  name: "model/att_seq2seq/strided_slice/stack"
  op: "Const"
  attr {
    key: "_output_shapes"
    value {
      list {
        shape {
          dim {
            size: 2
          }
        }
      }
    }
  }
  attr {
    key: "dtype"
    value {
      type: DT_INT32
    }
  }
  attr {
    key: "value"
    value {
      tensor {
        dtype: DT_INT32
        tensor_shape {
          dim {
            size: 2
          }
        }
        tensor_content: "\000\000\000\000\000\000\000\000"
      }
    }
  }
}
node {
  name: "model/att_seq2seq/strided_slice/stack_1"
  op: "Const"
  attr {
    key: "_output_shapes"
    value {
      list {
        shape {
          dim {
            size: 2
          }
        }
      }
    }
  }
  attr {
    key: "dtype"
    value {
      type: DT_INT32
    }
  }
  attr {
    key: "value"
    value {
      tensor {
        dtype: DT_INT32
        tensor_shape {
          dim {
            size: 2
          }
        }
        tensor_content: "\000\000\000\000\364\001\000\000"
      }
    }
  }
}
node {
  name: "model/att_seq2seq/strided_slice/stack_2"
  op: "Const"
  attr {
    key: "_output_shapes"
    value {
      list {
        shape {
          dim {
            size: 2
          }
        }
      }
    }
  }
  attr {
    key: "dtype"
    value {
      type: DT_INT32
    }
  }
  attr {
    key: "value"
    value {
      tensor {
        dtype: DT_INT32
        tensor_shape {
          dim {
            size: 2
          }
        }
        tensor_content: "\001\000\000\000\001\000\000\000"
      }
    }
  }
}
node {
  name: "model/att_seq2seq/strided_slice"
  op: "StridedSlice"
  input: "train_input_fn/bucket_queue/bucket/dequeue_top:3"
  input: "model/att_seq2seq/strided_slice/stack"
  input: "model/att_seq2seq/strided_slice/stack_1"
  input: "model/att_seq2seq/strided_slice/stack_2"
  attr {
    key: "Index"
    value {
      type: DT_INT32
    }
  }
  attr {
    key: "T"
    value {
      type: DT_STRING
    }
  }
  attr {
    key: "_output_shapes"
    value {
      list {
        shape {
          dim {
            size: 32
          }
          dim {
            size: -1
          }
        }
      }
    }
  }
  attr {
    key: "begin_mask"
    value {
      i: 3
    }
  }
  attr {
    key: "ellipsis_mask"
    value {
      i: 0
    }
  }
  attr {
    key: "end_mask"
    value {
      i: 1
    }
  }
  attr {
    key: "new_axis_mask"
    value {
      i: 0
    }
  }
  attr {
    key: "shrink_axis_mask"
    value {
      i: 0
    }
  }
}
node {
  name: "model/att_seq2seq/Minimum/y"
  op: "Const"
  attr {
    key: "_output_shapes"
    value {
      list {
        shape {
        }
      }
    }
  }
  attr {
    key: "dtype"
    value {
      type: DT_INT32
    }
  }
  attr {
    key: "value"
    value {
      tensor {
        dtype: DT_INT32
        tensor_shape {
        }
        int_val: 500
      }
    }
  }
}
node {
  name: "model/att_seq2seq/Minimum"
  op: "Minimum"
  input: "train_input_fn/bucket_queue/bucket/dequeue_top:2"
  input: "model/att_seq2seq/Minimum/y"
  attr {
    key: "T"
    value {
      type: DT_INT32
    }
  }
  attr {
    key: "_output_shapes"
    value {
      list {
        shape {
          dim {
            size: 32
          }
        }
      }
    }
  }
}
node {
  name: "model/att_seq2seq/hash_table_1_Lookup"
  op: "LookupTableFindV2"
  input: "model/att_seq2seq/hash_table_1"
  input: "model/att_seq2seq/strided_slice"
  input: "model/att_seq2seq/hash_table_1/Const"
  attr {
    key: "Tin"
    value {
      type: DT_STRING
    }
  }
  attr {
    key: "Tout"
    value {
      type: DT_INT64
    }
  }
  attr {
    key: "_output_shapes"
    value {
      list {
        shape {
          dim {
            size: 32
          }
          dim {
            size: -1
          }
        }
      }
    }
  }
}
node {
  name: "model/att_seq2seq/ToFloat"
  op: "Cast"
  input: "model/att_seq2seq/Minimum"
  attr {
    key: "DstT"
    value {
      type: DT_FLOAT
    }
  }
  attr {
    key: "SrcT"
    value {
      type: DT_INT32
    }
  }
  attr {
    key: "_output_shapes"
    value {
      list {
        shape {
          dim {
            size: 32
…
    value {
      b: true
    }
  }
}
node {
  name: "save/Assign_11"
  op: "Assign"
  input: "model/att_seq2seq/OptimizeLoss/model/att_seq2seq/decode/attention/att_query/weights/Adam_1"
  input: "save/RestoreV2:11"
  attr {
    key: "T"
    value {
      type: DT_FLOAT
    }
  }
  attr {
    key: "_class"
    value {
      list {
        s: "loc:@model/att_seq2seq/decode/attention/att_query/weights"
      }
    }
  }
  attr {
    key: "_output_shapes"
    value {
      list {
        shape {
          dim {
            size: 512
          }
          dim {
            size: 512
          }
        }
      }
    }
  }
  attr {
    key: "use_locking"
    value {
      b: true
    }
  }
  attr {
    key: "validate_shape"
    value {
      b: true
    }
  }
}
node {
  name: "save/Assign_12"
  op: "Assign"
  input: "model/att_seq2seq/OptimizeLoss/model/att_seq2seq/decode/attention_decoder/decoder/attention_mix/biases/Adam"
  input: "save/RestoreV2:12"
  attr {
    key: "T"
    value {
      type: DT_FLOAT
    }
  }
  attr {
    key: "_class"
    value {
      list {
        s: "loc:@model/att_seq2seq/decode/attention_decoder/decoder/attention_mix/biases"
      }
    }
  }
  attr {
    key: "_output_shapes"
    value {
      list {
        shape {
          dim {
            size: 512
          }
        }
      }
    }
  }
  attr {
    key: "use_locking"
    value {
      b: true
    }
  }
  attr {
    key: "validate_shape"
    value {
      b: true
    }
  }
}
node {
  name: "save/Assign_13"
  op: "Assign"
  input: "model/att_seq2seq/OptimizeLoss/model/att_seq2seq/decode/attention_decoder/decoder/attention_mix/biases/Adam_1"
  input: "save/RestoreV2:13"
  attr {
    key: "T"
    value {
      type: DT_FLOAT
    }
  }
  attr {
    key: "_class"
    value {
      list {
        s: "loc:@model/att_seq2seq/decode/attention_decoder/decoder/attention_mix/biases"
      }
    }
  }
  attr {
    key: "_output_shapes"
    value {
      list {
        shape {
          dim {
            size: 512
          }
        }
      }
    }
  }
  attr {
    key: "use_locking"
    value {
      b: true
    }
  }
  attr {
    key: "validate_shape"
    value {
      b: true
    }
  }
}
node {
  name: "save/Assign_14"
  op: "Assign"
  input: "model/att_seq2seq/OptimizeLoss/model/att_seq2seq/decode/attention_decoder/decoder/attention_mix/weights/Adam"
  input: "save/RestoreV2:14"
  attr {
    key: "T"
    value {
      type: DT_FLOAT
    }
  }
  attr {
    key: "_class"
    value {
      list {
        s: "loc:@model/att_seq2seq/decode/attention_decoder/decoder/attention_mix/weights"
      }
    }
  }
  attr {
    key: "_output_shapes"
    value {
      list {
        shape {
          dim {
            size: 1536
          }
          dim {
            size: 512
          }
        }
      }
    }
  }
  attr {
    key: "use_locking"
    value {
      b: true
    }
  }
  attr {
    key: "validate_shape"
    value {
      b: true
    }
  }
}
node {
  name: "save/Assign_15"
  op: "Assign"
  input: "model/att_seq2seq/OptimizeLoss/model/att_seq2seq/decode/attention_decoder/decoder/attention_mix/weights/Adam_1"
  input: "save/RestoreV2:15"
  attr {
    key: "T"
    value {
      type: DT_FLOAT
    }
  }
  attr {
    key: "_class"
    value {
      list {
        s: "loc:@model/att_seq2seq/decode/attention_decoder/decoder/attention_mix/weights"
      }
    }
  }
  attr {
    key: "_output_shapes"
    value {
      list {
        shape {
          dim {
            size: 1536
          }
          dim {
            size: 512
          }
        }
      }
    }
  }
  attr {
    key: "use_locking"
    value {
      b: true
    }
  }
  attr {
    key: "validate_shape"
    value {
      b: true
    }
  }
}
node {
  name: "save/Assign_16"
  op: "Assign"
  input: "model/att_seq2seq/OptimizeLoss/model/att_seq2seq/decode/attention_decoder/decoder/extended_multi_rnn_cell/cell_0/lstm_cell/bias/Adam"
  input: "save/RestoreV2:16"
  attr {
    key: "T"
    value {
      type: DT_FLOAT
    }
  }
  attr {
    key: "_class"
    value {
      list {
        s: "loc:@model/att_seq2seq/decode/attention_decoder/decoder/extended_multi_rnn_cell/cell_0/lstm_cell/bias"
      }
    }
  }
  attr {
    key: "_output_shapes"
    value {
      list {
        shape {
          dim {
            size: 2048
          }
        }
      }
    }
  }
  attr {
    key: "use_locking"
    value {
      b: true
    }
  }
  attr {
    key: "validate_shape"
    value {
      b: true
    }
  }
}
node {
  name: "save/Assign_17"
  op: "Assign"
  input: "model/att_seq2seq/OptimizeLoss/model/att_seq2seq/decode/attention_decoder/decoder/extended_multi_rnn_cell/cell_0/lstm_cell/bias/Adam_1"
  input: "save/RestoreV2:17"
  attr {
    key: "T"
    value {
      type: DT_FLOAT
    }
  }
  attr {
    key: "_class"
    value {
      list {
        s: "loc:@model/att_seq2seq/decode/attention_decoder/decoder/extended_multi_rnn_cell/cell_0/lstm_cell/bias"
      }
    }
  }
  attr {
    key: "_output_shapes"
    value {
      list {
        shape {
          dim {
            size: 2048
          }
        }
      }
    }
  }
  attr {
    key: "use_locking"
    value {
      b: true
    }
  }
  attr {
    key: "validate_shape"
    value {
      b: true
    }
  }
}
node {
  name: "save/Assign_18"
  op: "Assign"
  input: "model/att_seq2seq/OptimizeLoss/model/att_seq2seq/decode/attention_decoder/decoder/extended_multi_rnn_cell/cell_0/lstm_cell/kernel/Adam"
  input: "save/RestoreV2:18"
  attr {
    key: "T"
    value {
      type: DT_FLOAT
    }
  }
  attr {
    key: "_class"
    value {
      list {
        s: "loc:@model/att_seq2seq/decode/attention_decoder/decoder/extended_multi_rnn_cell/cell_0/lstm_cell/kernel"
      }
    }
  }
  attr {
    key: "_output_shapes"
    value {
      list {
        shape {
          dim {
            size: 2048
          }
          dim {
            size: 2048
          }
        }
      }
    }
  }
  attr {
    key: "use_locking"
    value {
      b: true
    }
  }
  attr {
    key: "validate_shape"
    value {
      b: true
    }
  }
}
node {
  name: "save/Assign_19"
  op: "Assign"
  input: "model/att_seq2seq/OptimizeLoss/model/att_seq2seq/decode/attention_decoder/decoder/extended_multi_rnn_cell/cell_0/lstm_cell/kernel/Adam_1"
  input: "save/RestoreV2:19"
  attr {
    key: "T"
    value {
      type: DT_FLOAT
    }
  }
  attr {
    key: "_class"
    value {
      list {
        s: "loc:@model/att_seq2seq/decode/attention_decoder/decoder/extended_multi_rnn_cell/cell_0/lstm_cell/kernel"
      }
    }
  }
  attr {
    key: "_output_shapes"
    value {
      list {
        shape {
          dim {
            size: 2048
          }
          dim {
            size: 2048
          }
        }
      }
    }
  }
  attr {
    key: "use_locking"
    value {
      b: true
    }
  }
  attr {
    key: "validate_shape"
    value {
      b: true
    }
  }
}
node {
  name: "save/Assign_20"
  op: "Assign"
  input: "model/att_seq2seq/OptimizeLoss/model/att_seq2seq/decode/attention_decoder/decoder/extended_multi_rnn_cell/cell_1/lstm_cell/bias/Adam"
  input: "save/RestoreV2:20"
  attr {
    key: "T"
    value {
      type: DT_FLOAT
    }
  }
  attr {
    key: "_class"
    value {
      list {
        s: "loc:@model/att_seq2seq/decode/attention_decoder/decoder/extended_multi_rnn_cell/cell_1/lstm_cell/bias"
      }
    }
  }
  attr {
    key: "_output_shapes"
    value {
      list {
        shape {
          dim {
            size: 2048
          }
        }
      }
    }
  }
  attr {
    key: "use_locking"
    value {
      b: true
    }
  }
  attr {
    key: "validate_shape"
    value {
      b: true
    }
  }
}
node {
  name: "save/Assign_21"
  op: "Assign"
  input: "model/att_seq2seq/OptimizeLoss/model/att_seq2seq/decode/attention_decoder/decoder/extended_multi_rnn_cell/cell_1/lstm_cell/bias/Adam_1"
  input: "save/RestoreV2:21"
  attr {
    key: "T"
    value {
      type: DT_FLOAT
    }
  }
  attr {
    key: "_class"
    value {
      list {
        s: "loc:@model/att_seq2seq/decode/attention_decoder/decoder/extended_multi_rnn_cell/cell_1/lstm_cell/bias"
      }
    }
  }
  attr {
    key: "_output_shapes"
    value {
      list {
        shape {
          dim {
            size: 2048
          }
        }
      }
    }
  }
  attr {
    key: "use_locking"
    value {
      b: true
    }
  }
  attr {
    key: "validate_shape"
    value {
      b: true
    }
  }
}
node {
  name: "save/Assign_22"
  op: "Assign"
  input: "model/att_seq2seq/OptimizeLoss/model/att_seq2seq/decode/attention_decoder/decoder/extended_multi_rnn_cell/cell_1/lstm_cell/kernel/Adam"
  input: "save/RestoreV2:22"
  attr {
    key: "T"
    value {
      type: DT_FLOAT
    }
  }
  attr {
    key: "_class"
    value {
      list {
        s: "loc:@model/att_seq2seq/decode/attention_decoder/decoder/extended_multi_rnn_cell/cell_1/lstm_cell/kernel"
      }
    }
  }
  attr {
    key: "_output_shapes"
    value {
      list {
        shape {
          dim {
            size: 1024
          }
          dim {
            size: 2048
          }
        }
      }
    }
  }
  attr {
    key: "use_locking"
    value {
      b: true
    }
  }
  attr {
    key: "validate_shape"
    value {
      b: true
    }
  }
}
node {
  name: "save/Assign_23"
  op: "Assign"
  input: "model/att_seq2seq/OptimizeLoss/model/att_seq2seq/decode/attention_decoder/decoder/extended_multi_rnn_cell/cell_1/lstm_cell/kernel/Adam_1"
  input: "save/RestoreV2:23"
  attr {
    key: "T"
    value {
      type: DT_FLOAT
    }
  }
  attr {
    key: "_class"
    value {
      list {
        s: "loc:@model/att_seq2seq/decode/attention_decoder/decoder/extended_multi_rnn_cell/cell_1/lstm_cell/kernel"
      }
    }
  }
  attr {
    key: "_output_shapes"
    value {
      list {
        shape {
          dim {
            size: 1024
          }
          dim {
            size: 2048
          }
        }
      }
    }
  }
  attr {
    key: "use_locking"
    value {
      b: true
    }
  }
  attr {
    key: "validate_shape"
    value {
      b: true
    }
  }
}
node {
  name: "save/Assign_24"
  op: "Assign"
  input: "model/att_seq2seq/OptimizeLoss/model/att_seq2seq/decode/attention_decoder/decoder/logits/biases/Adam"
  input: "save/RestoreV2:24"
  attr {
    key: "T"
    value {
      type: DT_FLOAT
    }
  }
  attr {
    key: "_class"
    value {
      list {
        s: "loc:@model/att_seq2seq/decode/attention_decoder/decoder/logits/biases"
      }
    }
  }
  attr {
    key: "_output_shapes"
    value {
      list {
        shape {
          dim {
            size: 46
          }
        }
      }
    }
  }
  attr {
    key: "use_locking"
    value {
      b: true
    }
  }
  attr {
    key: "validate_shape"
    value {
      b: true
    }
  }
}
node {
  name: "save/Assign_25"
  op: "Assign"
  input: "model/att_seq2seq/OptimizeLoss/model/att_seq2seq/decode/attention_decoder/decoder/logits/biases/Adam_1"
  input: "save/RestoreV2:25"
  attr {
    key: "T"
    value {
      type: DT_FLOAT
    }
  }
  attr {
    key: "_class"
    value {
      list {
        s: "loc:@model/att_seq2seq/decode/attention_decoder/decoder/logits/biases"
      }
    }
  }
  attr {
    key: "_output_shapes"
    value {
      list {
        shape {
          dim {
            size: 46
          }
        }
      }
    }
  }
  attr {
    key: "use_locking"
    value {
      b: true
    }
  }
  attr {
    key: "validate_shape"
    value {
      b: true
    }
  }
}
node {
  name: "save/Assign_26"
  op: "Assign"
  input: "model/att_seq2seq/OptimizeLoss/model/att_seq2seq/decode/attention_decoder/decoder/logits/weights/Adam"
  input: "save/RestoreV2:26"
  attr {
    key: "T"
    value {
      type: DT_FLOAT
    }
  }
  attr {
    key: "_class"
    value {
      list {
        s: "loc:@model/att_seq2seq/decode/attention_decoder/decoder/logits/weights"
      }
    }
  }
  attr {
    key: "_output_shapes"
    value {
      list {
        shape {
          dim {
            size: 512
          }
          dim {
            size: 46
          }
        }
      }
    }
  }
  attr {
    key: "use_locking"
    value {
      b: true
    }
  }
  attr {
    key: "validate_shape"
    value {
      b: true
    }
  }
}
node {
  name: "save/Assign_27"
  op: "Assign"
  input: "model/att_seq2seq/OptimizeLoss/model/att_seq2seq/decode/attention_decoder/decoder/logits/weights/Adam_1"
  input: "save/RestoreV2:27"
  attr {
    key: "T"
    value {
      type: DT_FLOAT
    }
  }
  attr {
    key: "_class"
    value {
      list {
        s: "loc:@model/att_seq2seq/decode/attention_decoder/decoder/logits/weights"
      }
    }
  }
  attr {
    key: "_output_shapes"
    value {
      list {
        shape {
          dim {
            size: 512
          }
          dim {
            size: 46
          }
        }
      }
    }
  }
  attr {
    key: "use_locking"
    value {
      b: true
    }
  }
  attr {
    key: "validate_shape"
    value {
      b: true
    }
  }
}
node {
  name: "save/Assign_28"
  op: "Assign"
  input: "model/att_seq2seq/OptimizeLoss/model/att_seq2seq/decode/target_embedding/W/Adam"
  input: "save/RestoreV2:28"
  attr {
    key: "T"
    value {
      type: DT_FLOAT
    }
  }
  attr {
    key: "_class"
    value {
      list {
        s: "loc:@model/att_seq2seq/decode/target_embedding/W"
      }
    }
  }
  attr {
    key: "_output_shapes"
    value {
      list {
        shape {
          dim {
            size: 46
          }
          dim {
            size: 512
          }
        }
      }
    }
  }
  attr {
    key: "use_locking"
    value {
      b: true
    }
  }
  attr {
    key: "validate_shape"
    value {
      b: true
    }
  }
}
node {
  name: "save/Assign_29"
  op: "Assign"
  input: "model/att_seq2seq/OptimizeLoss/model/att_seq2seq/decode/target_embedding/W/Adam_1"
  input: "save/RestoreV2:29"
  attr {
    key: "T"
    value {
      type: DT_FLOAT
    }
  }
  attr {
    key: "_class"
    value {
      list {
        s: "loc:@model/att_seq2seq/decode/target_embedding/W"
      }
    }
  }
  attr {
    key: "_output_shapes"
    value {
      list {
        shape {
          dim {
            size: 46
          }
          dim {
            size: 512
          }
        }
      }
    }
  }
  attr {
    key: "use_locking"
    value {
      b: true
    }
  }
  attr {
    key: "validate_shape"
    value {
      b: true
    }
  }
}
node {
  name: "save/Assign_30"
  op: "Assign"
  input: "model/att_seq2seq/OptimizeLoss/model/att_seq2seq/encode/bidi_rnn_encoder/bidirectional_rnn/bw/extended_multi_rnn_cell/cell_0/lstm_cell/bias/Adam"
  input: "save/RestoreV2:30"
  attr {
    key: "T"
    value {
      type: DT_FLOAT
    }
  }
  attr {
    key: "_class"
    value {
      list {
        s: "loc:@model/att_seq2seq/encode/bidi_rnn_encoder/bidirectional_rnn/bw/extended_multi_rnn_cell/cell_0/lstm_cell/bias"
      }
    }
  }
  attr {
    key: "_output_shapes"
    value {
      list {
        shape {
          dim {
            size: 2048
          }
        }
      }
    }
  }
  attr {
    key: "use_locking"
    value {
      b: true
    }
  }
  attr {
    key: "validate_shape"
    value {
      b: true
    }
  }
}
node {
  name: "save/Assign_31"
  op: "Assign"
  input: "model/att_seq2seq/OptimizeLoss/model/att_seq2seq/encode/bidi_rnn_encoder/bidirectional_rnn/bw/extended_multi_rnn_cell/cell_0/lstm_cell/bias/Adam_1"
  input: "save/RestoreV2:31"
  attr {
    key: "T"
    value {
      type: DT_FLOAT
    }
  }
  attr {
    key: "_class"
    value {
      list {
        s: "loc:@model/att_seq2seq/encode/bidi_rnn_encoder/bidirectional_rnn/bw/extended_multi_rnn_cell/cell_0/lstm_cell/bias"
      }
    }
  }
  attr {
    key: "_output_shapes"
    value {
      list {
        shape {
          dim {
            size: 2048
          }
        }
      }
    }
  }
  attr {
    key: "use_locking"
    value {
      b: true
    }
  }
  attr {
    key: "validate_shape"
    value {
      b: true
    }
  }
}
node {
  name: "save/Assign_32"
  op: "Assign"
  input: "model/att_seq2seq/OptimizeLoss/model/att_seq2seq/encode/bidi_rnn_encoder/bidirectional_rnn/bw/extended_multi_rnn_cell/cell_0/lstm_cell/kernel/Adam"
  input: "save/RestoreV2:32"
  attr {
    key: "T"
    value {
      type: DT_FLOAT
    }
  }
  attr {
    key: "_class"
    value {
      list {
        s: "loc:@model/att_seq2seq/encode/bidi_rnn_encoder/bidirectional_rnn/bw/extended_multi_rnn_cell/cell_0/lstm_cell/kernel"
      }
    }
  }
  attr {
    key: "_output_shapes"
    value {
      list {
        shape {
          dim {
            size: 1024
          }
          dim {
            size: 2048
          }
        }
      }
    }
  }
  attr {
    key: "use_locking"
    value {
      b: true
    }
  }
  attr {
    key: "validate_shape"
    value {
      b: true
    }
  }
}
node {
  name: "save/Assign_33"
  op: "Assign"
  input: "model/att_seq2seq/OptimizeLoss/model/att_seq2seq/encode/bidi_rnn_encoder/bidirectional_rnn/bw/extended_multi_rnn_cell/cell_0/lstm_cell/kernel/Adam_1"
  input: "save/RestoreV2:33"
  attr {
    key: "T"
    value {
      type: DT_FLOAT
    }
  }
  attr {
    key: "_class"
    value {
      list {
        s: "loc:@model/att_seq2seq/encode/bidi_rnn_encoder/bidirectional_rnn/bw/extended_multi_rnn_cell/cell_0/lstm_cell/kernel"
      }
    }
  }
  attr {
    key: "_output_shapes"
    value {
      list {
        shape {
          dim {
            size: 1024
          }
          dim {
            size: 2048
          }
        }
      }
    }
  }
  attr {
    key: "use_locking"
    value {
      b: true
    }
  }
  attr {
    key: "validate_shape"
    value {
      b: true
    }
  }
}
node {
  name: "save/Assign_34"
  op: "Assign"
  input: "model/att_seq2seq/OptimizeLoss/model/att_seq2seq/encode/bidi_rnn_encoder/bidirectional_rnn/bw/extended_multi_rnn_cell/cell_1/lstm_cell/bias/Adam"
  input: "save/RestoreV2:34"
  attr {
    key: "T"
    value {
      type: DT_FLOAT
    }
  }
  attr {
    key: "_class"
    value {
      list {
        s: "loc:@model/att_seq2seq/encode/bidi_rnn_encoder/bidirectional_rnn/bw/extended_multi_rnn_cell/cell_1/lstm_cell/bias"
      }
    }
  }
  attr {
    key: "_output_shapes"
    value {
      list {
        shape {
          dim {
            size: 2048
          }
        }
      }
    }
  }
  attr {
    key: "use_locking"
    value {
      b: true
    }
  }
  attr {
    key: "validate_shape"
    value {
      b: true
    }
  }
}
node {
  name: "save/Assign_35"
  op: "Assign"
  input: "model/att_seq2seq/OptimizeLoss/model/att_seq2seq/encode/bidi_rnn_encoder/bidirectional_rnn/bw/extended_multi_rnn_cell/cell_1/lstm_cell/bias/Adam_1"
  input: "save/RestoreV2:35"
  attr {
    key: "T"
    value {
      type: DT_FLOAT
    }
  }
  attr {
    key: "_class"
    value {
      list {
        s: "loc:@model/att_seq2seq/encode/bidi_rnn_encoder/bidirectional_rnn/bw/extended_multi_rnn_cell/cell_1/lstm_cell/bias"
      }
    }
  }
  attr {
    key: "_output_shapes"
    value {
      list {
        shape {
          dim {
            size: 2048
          }
        }
      }
    }
  }
  attr {
    key: "use_locking"
    value {
      b: true
    }
  }
  attr {
    key: "validate_shape"
    value {
      b: true
    }
  }
}
node {
  name: "save/Assign_36"
  op: "Assign"
  input: "model/att_seq2seq/OptimizeLoss/model/att_seq2seq/encode/bidi_rnn_encoder/bidirectional_rnn/bw/extended_multi_rnn_cell/cell_1/lstm_cell/kernel/Adam"
  input: "save/RestoreV2:36"
  attr {
    key: "T"
    value {
      type: DT_FLOAT
    }
  }
  attr {
    key: "_class"
    value {
      list {
        s: "loc:@model/att_seq2seq/encode/bidi_rnn_encoder/bidirectional_rnn/bw/extended_multi_rnn_cell/cell_1/lstm_cell/kernel"
      }
    }
  }
  attr {
    key: "_output_shapes"
    value {
      list {
        shape {
          dim {
            size: 1024
          }
          dim {
            size: 2048
          }
        }
      }
    }
  }
  attr {
    key: "use_locking"
    value {
      b: true
    }
  }
  attr {
    key: "validate_shape"
    value {
      b: true
    }
  }
}
node {
  name: "save/Assign_37"
  op: "Assign"
  input: "model/att_seq2seq/OptimizeLoss/model/att_seq2seq/encode/bidi_rnn_encoder/bidirectional_rnn/bw/extended_multi_rnn_cell/cell_1/lstm_cell/kernel/Adam_1"
  input: "save/RestoreV2:37"
  attr {
    key: "T"
    value {
      type: DT_FLOAT
    }
  }
  attr {
    key: "_class"
    value {
      list {
        s: "loc:@model/att_seq2seq/encode/bidi_rnn_encoder/bidirectional_rnn/bw/extended_multi_rnn_cell/cell_1/lstm_cell/kernel"
      }
    }
  }
  attr {
    key: "_output_shapes"
    value {
      list {
        shape {
          dim {
            size: 1024
          }
          dim {
            size: 2048
          }
        }
      }
    }
  }
  attr {
    key: "use_locking"
    value {
      b: true
    }
  }
  attr {
    key: "validate_shape"
    value {
      b: true
    }
  }
}
node {
  name: "save/Assign_38"
  op: "Assign"
  input: "model/att_seq2seq/OptimizeLoss/model/att_seq2seq/encode/bidi_rnn_encoder/bidirectional_rnn/fw/extended_multi_rnn_cell/cell_0/lstm_cell/bias/Adam"
  input: "save/RestoreV2:38"
  attr {
    key: "T"
    value {
      type: DT_FLOAT
    }
  }
  attr {
    key: "_class"
    value {
      list {
        s: "loc:@model/att_seq2seq/encode/bidi_rnn_encoder/bidirectional_rnn/fw/extended_multi_rnn_cell/cell_0/lstm_cell/bias"
      }
    }
  }
  attr {
    key: "_output_shapes"
    value {
      list {
        shape {
          dim {
            size: 2048
          }
        }
      }
    }
  }
  attr {
    key: "use_locking"
    value {
      b: true
    }
  }
  attr {
    key: "validate_shape"
    value {
      b: true
    }
  }
}
node {
  name: "save/Assign_39"
  op: "Assign"
  input: "model/att_seq2seq/OptimizeLoss/model/att_seq2seq/encode/bidi_rnn_encoder/bidirectional_rnn/fw/extended_multi_rnn_cell/cell_0/lstm_cell/bias/Adam_1"
  input: "save/RestoreV2:39"
  attr {
    key: "T"
    value {
      type: DT_FLOAT
    }
  }
  attr {
    key: "_class"
    value {
      list {
        s: "loc:@model/att_seq2seq/encode/bidi_rnn_encoder/bidirectional_rnn/fw/extended_multi_rnn_cell/cell_0/lstm_cell/bias"
      }
    }
  }
  attr {
    key: "_output_shapes"
    value {
      list {
        shape {
          dim {
            size: 2048
          }
        }
      }
    }
  }
  attr {
    key: "use_locking"
    value {
      b: true
    }
  }
  attr {
    key: "validate_shape"
    value {
      b: true
    }
  }
}
node {
  name: "save/Assign_40"
  op: "Assign"
  input: "model/att_seq2seq/OptimizeLoss/model/att_seq2seq/encode/bidi_rnn_encoder/bidirectional_rnn/fw/extended_multi_rnn_cell/cell_0/lstm_cell/kernel/Adam"
  input: "save/RestoreV2:40"
  attr {
    key: "T"
    value {
      type: DT_FLOAT
    }
  }
  attr {
    key: "_class"
    value {
      list {
        s: "loc:@model/att_seq2seq/encode/bidi_rnn_encoder/bidirectional_rnn/fw/extended_multi_rnn_cell/cell_0/lstm_cell/kernel"
      }
    }
  }
  attr {
    key: "_output_shapes"
    value {
      list {
        shape {
          dim {
            size: 1024
          }
          dim {
            size: 2048
          }
        }
      }
    }
  }
  attr {
    key: "use_locking"
    value {
      b: true
    }
  }
  attr {
    key: "validate_shape"
    value {
      b: true
    }
  }
}
node {
  name: "save/Assign_41"
  op: "Assign"
  input: "model/att_seq2seq/OptimizeLoss/model/att_seq2seq/encode/bidi_rnn_encoder/bidirectional_rnn/fw/extended_multi_rnn_cell/cell_0/lstm_cell/kernel/Adam_1"
  input: "save/RestoreV2:41"
  attr {
    key: "T"
    value {
      type: DT_FLOAT
    }
  }
  attr {
    key: "_class"
    value {
      list {
        s: "loc:@model/att_seq2seq/encode/bidi_rnn_encoder/bidirectional_rnn/fw/extended_multi_rnn_cell/cell_0/lstm_cell/kernel"
      }
    }
  }
  attr {
    key: "_output_shapes"
    value {
      list {
        shape {
          dim {
            size: 1024
          }
          dim {
            size: 2048
          }
        }
      }
    }
  }
  attr {
    key: "use_locking"
    value {
      b: true
    }
  }
  attr {
    key: "validate_shape"
    value {
      b: true
    }
  }
}
node {
  name: "save/Assign_42"
  op: "Assign"
  input: "model/att_seq2seq/OptimizeLoss/model/att_seq2seq/encode/bidi_rnn_encoder/bidirectional_rnn/fw/extended_multi_rnn_cell/cell_1/lstm_cell/bias/Adam"
  input: "save/RestoreV2:42"
  attr {
    key: "T"
    value {
      type: DT_FLOAT
    }
  }
  attr {
    key: "_class"
    value {
      list {
        s: "loc:@model/att_seq2seq/encode/bidi_rnn_encoder/bidirectional_rnn/fw/extended_multi_rnn_cell/cell_1/lstm_cell/bias"
      }
    }
  }
  attr {
    key: "_output_shapes"
    value {
      list {
        shape {
          dim {
            size: 2048
          }
        }
      }
    }
  }
  attr {
    key: "use_locking"
    value {
      b: true
    }
  }
  attr {
    key: "validate_shape"
    value {
      b: true
    }
  }
}
node {
  name: "save/Assign_43"
  op: "Assign"
  input: "model/att_seq2seq/OptimizeLoss/model/att_seq2seq/encode/bidi_rnn_encoder/bidirectional_rnn/fw/extended_multi_rnn_cell/cell_1/lstm_cell/bias/Adam_1"
  input: "save/RestoreV2:43"
  attr {
    key: "T"
    value {
      type: DT_FLOAT
    }
  }
  attr {
    key: "_class"
    value {
      list {
        s: "loc:@model/att_seq2seq/encode/bidi_rnn_encoder/bidirectional_rnn/fw/extended_multi_rnn_cell/cell_1/lstm_cell/bias"
      }
    }
  }
  attr {
    key: "_output_shapes"
    value {
      list {
        shape {
          dim {
            size: 2048
          }
        }
      }
    }
  }
  attr {
    key: "use_locking"
    value {
      b: true
    }
  }
  attr {
    key: "validate_shape"
    value {
      b: true
    }
  }
}
node {
  name: "save/Assign_44"
  op: "Assign"
  input: "model/att_seq2seq/OptimizeLoss/model/att_seq2seq/encode/bidi_rnn_encoder/bidirectional_rnn/fw/extended_multi_rnn_cell/cell_1/lstm_cell/kernel/Adam"
  input: "save/RestoreV2:44"
  attr {
    key: "T"
    value {
      type: DT_FLOAT
    }
  }
  attr {
    key: "_class"
    value {
      list {
        s: "loc:@model/att_seq2seq/encode/bidi_rnn_encoder/bidirectional_rnn/fw/extended_multi_rnn_cell/cell_1/lstm_cell/kernel"
      }
    }
  }
  attr {
    key: "_output_shapes"
    value {
      list {
        shape {
          dim {
            size: 1024
          }
          dim {
            size: 2048
          }
        }
      }
    }
  }
  attr {
    key: "use_locking"
    value {
      b: true
    }
  }
  attr {
    key: "validate_shape"
    value {
      b: true
    }
  }
}
node {
  name: "save/Assign_45"
  op: "Assign"
  input: "model/att_seq2seq/OptimizeLoss/model/att_seq2seq/encode/bidi_rnn_encoder/bidirectional_rnn/fw/extended_multi_rnn_cell/cell_1/lstm_cell/kernel/Adam_1"
  input: "save/RestoreV2:45"
  attr {
    key: "T"
    value {
      type: DT_FLOAT
    }
  }
  attr {
    key: "_class"
    value {
      list {
        s: "loc:@model/att_seq2seq/encode/bidi_rnn_encoder/bidirectional_rnn/fw/extended_multi_rnn_cell/cell_1/lstm_cell/kernel"
      }
    }
  }
  attr {
    key: "_output_shapes"
    value {
      list {
        shape {
          dim {
            size: 1024
          }
          dim {
            size: 2048
          }
        }
      }
    }
  }
  attr {
    key: "use_locking"
    value {
      b: true
    }
  }
  attr {
    key: "validate_shape"
    value {
      b: true
    }
  }
}
node {
  name: "save/Assign_46"
  op: "Assign"
  input: "model/att_seq2seq/OptimizeLoss/model/att_seq2seq/encode/source_embedding/W/Adam"
  input: "save/RestoreV2:46"
  attr {
    key: "T"
    value {
      type: DT_FLOAT
    }
  }
  attr {
    key: "_class"
    value {
      list {
        s: "loc:@model/att_seq2seq/encode/source_embedding/W"
      }
    }
  }
  attr {
    key: "_output_shapes"
    value {
      list {
        shape {
          dim {
            size: 88
          }
          dim {
            size: 512
          }
        }
      }
    }
  }
  attr {
    key: "use_locking"
    value {
      b: true
    }
  }
  attr {
    key: "validate_shape"
    value {
      b: true
    }
  }
}
node {
  name: "save/Assign_47"
  op: "Assign"
  input: "model/att_seq2seq/OptimizeLoss/model/att_seq2seq/encode/source_embedding/W/Adam_1"
  input: "save/RestoreV2:47"
  attr {
    key: "T"
    value {
      type: DT_FLOAT
    }
  }
  attr {
    key: "_class"
    value {
      list {
        s: "loc:@model/att_seq2seq/encode/source_embedding/W"
      }
    }
  }
  attr {
    key: "_output_shapes"
    value {
      list {
        shape {
          dim {
            size: 88
          }
          dim {
            size: 512
          }
        }
      }
    }
  }
  attr {
    key: "use_locking"
    value {
      b: true
    }
  }
  attr {
    key: "validate_shape"
    value {
      b: true
    }
  }
}
node {
  name: "save/Assign_48"
  op: "Assign"
  input: "model/att_seq2seq/Variable"
  input: "save/RestoreV2:48"
  attr {
    key: "T"
    value {
      type: DT_INT32
    }
  }
  attr {
    key: "_class"
    value {
      list {
        s: "loc:@model/att_seq2seq/Variable"
      }
    }
  }
  attr {
    key: "_output_shapes"
    value {
      list {
        shape {
        }
      }
    }
  }
  attr {
    key: "use_locking"
    value {
      b: true
    }
  }
  attr {
    key: "validate_shape"
    value {
      b: true
    }
  }
}
node {
  name: "save/Assign_49"
  op: "Assign"
  input: "model/att_seq2seq/decode/attention/att_keys/biases"
  input: "save/RestoreV2:49"
  attr {
    key: "T"
    value {
      type: DT_FLOAT
    }
  }
  attr {
    key: "_class"
    value {
      list {
        s: "loc:@model/att_seq2seq/decode/attention/att_keys/biases"
      }
    }
  }
  attr {
    key: "_output_shapes"
    value {
      list {
        shape {
          dim {
            size: 512
          }
        }
      }
    }
  }
  attr {
    key: "use_locking"
    value {
      b: true
    }
  }
  attr {
    key: "validate_shape"
    value {
      b: true
    }
  }
}
node {
  name: "save/Assign_50"
  op: "Assign"
  input: "model/att_seq2seq/decode/attention/att_keys/weights"
  input: "save/RestoreV2:50"
  attr {
    key: "T"
    value {
      type: DT_FLOAT
    }
  }
  attr {
    key: "_class"
    value {
      list {
        s: "loc:@model/att_seq2seq/decode/attention/att_keys/weights"
      }
    }
  }
  attr {
    key: "_output_shapes"
    value {
      list {
        shape {
          dim {
            size: 1024
          }
          dim {
            size: 512
          }
        }
      }
    }
  }
  attr {
    key: "use_locking"
    value {
      b: true
    }
  }
  attr {
    key: "validate_shape"
    value {
      b: true
    }
  }
}
node {
  name: "save/Assign_51"
  op: "Assign"
  input: "model/att_seq2seq/decode/attention/att_query/biases"
  input: "save/RestoreV2:51"
  attr {
    key: "T"
    value {
      type: DT_FLOAT
    }
  }
  attr {
    key: "_class"
    value {
      list {
        s: "loc:@model/att_seq2seq/decode/attention/att_query/biases"
      }
    }
  }
  attr {
    key: "_output_shapes"
    value {
      list {
        shape {
          dim {
            size: 512
          }
        }
      }
    }
  }
  attr {
    key: "use_locking"
    value {
      b: true
    }
  }
  attr {
    key: "validate_shape"
    value {
      b: true
    }
  }
}
node {
  name: "save/Assign_52"
  op: "Assign"
  input: "model/att_seq2seq/decode/attention/att_query/weights"
  input: "save/RestoreV2:52"
  attr {
    key: "T"
    value {
      type: DT_FLOAT
    }
  }
  attr {
    key: "_class"
    value {
      list {
        s: "loc:@model/att_seq2seq/decode/attention/att_query/weights"
      }
    }
  }
  attr {
    key: "_output_shapes"
    value {
      list {
        shape {
          dim {
            size: 512
          }
          dim {
            size: 512
          }
        }
      }
    }
  }
  attr {
    key: "use_locking"
    value {
      b: true
    }
  }
  attr {
    key: "validate_shape"
    value {
      b: true
    }
  }
}
node {
  name: "save/Assign_53"
  op: "Assign"
  input: "model/att_seq2seq/decode/attention_decoder/decoder/attention_mix/biases"
  input: "save/RestoreV2:53"
  attr {
    key: "T"
    value {
      type: DT_FLOAT
    }
  }
  attr {
    key: "_class"
    value {
      list {
        s: "loc:@model/att_seq2seq/decode/attention_decoder/decoder/attention_mix/biases"
      }
    }
  }
  attr {
    key: "_output_shapes"
    value {
      list {
        shape {
          dim {
            size: 512
          }
        }
      }
    }
  }
  attr {
    key: "use_locking"
    value {
      b: true
    }
  }
  attr {
    key: "validate_shape"
    value {
      b: true
    }
  }
}
node {
  name: "save/Assign_54"
  op: "Assign"
  input: "model/att_seq2seq/decode/attention_decoder/decoder/attention_mix/weights"
  input: "save/RestoreV2:54"
  attr {
    key: "T"
    value {
      type: DT_FLOAT
    }
  }
  attr {
    key: "_class"
    value {
      list {
        s: "loc:@model/att_seq2seq/decode/attention_decoder/decoder/attention_mix/weights"
      }
    }
  }
  attr {
    key: "_output_shapes"
    value {
      list {
        shape {
          dim {
            size: 1536
          }
          dim {
            size: 512
          }
        }
      }
    }
  }
  attr {
    key: "use_locking"
    value {
      b: true
    }
  }
  attr {
    key: "validate_shape"
    value {
      b: true
    }
  }
}
node {
  name: "save/Assign_55"
  op: "Assign"
  input: "model/att_seq2seq/decode/attention_decoder/decoder/extended_multi_rnn_cell/cell_0/lstm_cell/bias"
  input: "save/RestoreV2:55"
  attr {
    key: "T"
    value {
      type: DT_FLOAT
    }
  }
  attr {
    key: "_class"
    value {
      list {
        s: "loc:@model/att_seq2seq/decode/attention_decoder/decoder/extended_multi_rnn_cell/cell_0/lstm_cell/bias"
      }
    }
  }
  attr {
    key: "_output_shapes"
    value {
      list {
        shape {
          dim {
            size: 2048
          }
        }
      }
    }
  }
  attr {
    key: "use_locking"
    value {
      b: true
    }
  }
  attr {
    key: "validate_shape"
    value {
      b: true
    }
  }
}
node {
  name: "save/Assign_56"
  op: "Assign"
  input: "model/att_seq2seq/decode/attention_decoder/decoder/extended_multi_rnn_cell/cell_0/lstm_cell/kernel"
  input: "save/RestoreV2:56"
  attr {
    key: "T"
    value {
      type: DT_FLOAT
    }
  }
  attr {
    key: "_class"
    value {
      list {
        s: "loc:@model/att_seq2seq/decode/attention_decoder/decoder/extended_multi_rnn_cell/cell_0/lstm_cell/kernel"
      }
    }
  }
  attr {
    key: "_output_shapes"
    value {
      list {
        shape {
          dim {
            size: 2048
          }
          dim {
            size: 2048
          }
        }
      }
    }
  }
  attr {
    key: "use_locking"
    value {
      b: true
    }
  }
  attr {
    key: "validate_shape"
    value {
      b: true
    }
  }
}
node {
  name: "save/Assign_57"
  op: "Assign"
  input: "model/att_seq2seq/decode/attention_decoder/decoder/extended_multi_rnn_cell/cell_1/lstm_cell/bias"
  input: "save/RestoreV2:57"
  attr {
    key: "T"
    value {
      type: DT_FLOAT
    }
  }
  attr {
    key: "_class"
    value {
      list {
        s: "loc:@model/att_seq2seq/decode/attention_decoder/decoder/extended_multi_rnn_cell/cell_1/lstm_cell/bias"
      }
    }
  }
  attr {
    key: "_output_shapes"
    value {
      list {
        shape {
          dim {
            size: 2048
          }
        }
      }
    }
  }
  attr {
    key: "use_locking"
    value {
      b: true
    }
  }
  attr {
    key: "validate_shape"
    value {
      b: true
    }
  }
}
node {
  name: "save/Assign_58"
  op: "Assign"
  input: "model/att_seq2seq/decode/attention_decoder/decoder/extended_multi_rnn_cell/cell_1/lstm_cell/kernel"
  input: "save/RestoreV2:58"
  attr {
    key: "T"
    value {
      type: DT_FLOAT
    }
  }
  attr {
    key: "_class"
    value {
      list {
        s: "loc:@model/att_seq2seq/decode/attention_decoder/decoder/extended_multi_rnn_cell/cell_1/lstm_cell/kernel"
      }
    }
  }
  attr {
    key: "_output_shapes"
    value {
      list {
        shape {
          dim {
            size: 1024
          }
          dim {
            size: 2048
          }
        }
      }
    }
  }
  attr {
    key: "use_locking"
    value {
      b: true
    }
  }
  attr {
    key: "validate_shape"
    value {
      b: true
    }
  }
}
node {
  name: "save/Assign_59"
  op: "Assign"
  input: "model/att_seq2seq/decode/attention_decoder/decoder/logits/biases"
  input: "save/RestoreV2:59"
  attr {
    key: "T"
    value {
      type: DT_FLOAT
    }
  }
  attr {
    key: "_class"
    value {
      list {
        s: "loc:@model/att_seq2seq/decode/attention_decoder/decoder/logits/biases"
      }
    }
  }
  attr {
    key: "_output_shapes"
    value {
      list {
        shape {
          dim {
            size: 46
          }
        }
      }
    }
  }
  attr {
    key: "use_locking"
    value {
      b: true
    }
  }
  attr {
    key: "validate_shape"
    value {
      b: true
    }
  }
}
node {
  name: "save/Assign_60"
  op: "Assign"
  input: "model/att_seq2seq/decode/attention_decoder/decoder/logits/weights"
  input: "save/RestoreV2:60"
  attr {
    key: "T"
    value {
      type: DT_FLOAT
    }
  }
  attr {
    key: "_class"
    value {
      list {
        s: "loc:@model/att_seq2seq/decode/attention_decoder/decoder/logits/weights"
      }
    }
  }
  attr {
    key: "_output_shapes"
    value {
      list {
        shape {
          dim {
            size: 512
          }
          dim {
            size: 46
          }
        }
      }
    }
  }
  attr {
    key: "use_locking"
    value {
      b: true
    }
  }
  attr {
    key: "validate_shape"
    value {
      b: true
    }
  }
}
node {
  name: "save/Assign_61"
  op: "Assign"
  input: "model/att_seq2seq/decode/target_embedding/W"
  input: "save/RestoreV2:61"
  attr {
    key: "T"
    value {
      type: DT_FLOAT
    }
  }
  attr {
    key: "_class"
    value {
      list {
        s: "loc:@model/att_seq2seq/decode/target_embedding/W"
      }
    }
  }
  attr {
    key: "_output_shapes"
    value {
      list {
        shape {
          dim {
            size: 46
          }
          dim {
            size: 512
          }
        }
      }
    }
  }
  attr {
    key: "use_locking"
    value {
      b: true
    }
  }
  attr {
    key: "validate_shape"
    value {
      b: true
    }
  }
}
node {
  name: "save/Assign_62"
  op: "Assign"
  input: "model/att_seq2seq/encode/bidi_rnn_encoder/bidirectional_rnn/bw/extended_multi_rnn_cell/cell_0/lstm_cell/bias"
  input: "save/RestoreV2:62"
  attr {
    key: "T"
    value {
      type: DT_FLOAT
    }
  }
  attr {
    key: "_class"
    value {
      list {
        s: "loc:@model/att_seq2seq/encode/bidi_rnn_encoder/bidirectional_rnn/bw/extended_multi_rnn_cell/cell_0/lstm_cell/bias"
      }
    }
  }
  attr {
    key: "_output_shapes"
    value {
      list {
        shape {
          dim {
            size: 2048
          }
        }
      }
    }
  }
  attr {
    key: "use_locking"
    value {
      b: true
    }
  }
  attr {
    key: "validate_shape"
    value {
      b: true
    }
  }
}
node {
  name: "save/Assign_63"
  op: "Assign"
  input: "model/att_seq2seq/encode/bidi_rnn_encoder/bidirectional_rnn/bw/extended_multi_rnn_cell/cell_0/lstm_cell/kernel"
  input: "save/RestoreV2:63"
  attr {
    key: "T"
    value {
      type: DT_FLOAT
    }
  }
  attr {
    key: "_class"
    value {
      list {
        s: "loc:@model/att_seq2seq/encode/bidi_rnn_encoder/bidirectional_rnn/bw/extended_multi_rnn_cell/cell_0/lstm_cell/kernel"
      }
    }
  }
  attr {
    key: "_output_shapes"
    value {
      list {
        shape {
          dim {
            size: 1024
          }
          dim {
            size: 2048
          }
        }
      }
    }
  }
  attr {
    key: "use_locking"
    value {
      b: true
    }
  }
  attr {
    key: "validate_shape"
    value {
      b: true
    }
  }
}
node {
  name: "save/Assign_64"
  op: "Assign"
  input: "model/att_seq2seq/encode/bidi_rnn_encoder/bidirectional_rnn/bw/extended_multi_rnn_cell/cell_1/lstm_cell/bias"
  input: "save/RestoreV2:64"
  attr {
    key: "T"
    value {
      type: DT_FLOAT
    }
  }
  attr {
    key: "_class"
    value {
      list {
        s: "loc:@model/att_seq2seq/encode/bidi_rnn_encoder/bidirectional_rnn/bw/extended_multi_rnn_cell/cell_1/lstm_cell/bias"
      }
    }
  }
  attr {
    key: "_output_shapes"
    value {
      list {
        shape {
          dim {
            size: 2048
          }
        }
      }
    }
  }
  attr {
    key: "use_locking"
    value {
      b: true
    }
  }
  attr {
    key: "validate_shape"
    value {
      b: true
    }
  }
}
node {
  name: "save/Assign_65"
  op: "Assign"
  input: "model/att_seq2seq/encode/bidi_rnn_encoder/bidirectional_rnn/bw/extended_multi_rnn_cell/cell_1/lstm_cell/kernel"
  input: "save/RestoreV2:65"
  attr {
    key: "T"
    value {
      type: DT_FLOAT
    }
  }
  attr {
    key: "_class"
    value {
      list {
        s: "loc:@model/att_seq2seq/encode/bidi_rnn_encoder/bidirectional_rnn/bw/extended_multi_rnn_cell/cell_1/lstm_cell/kernel"
      }
    }
  }
  attr {
    key: "_output_shapes"
    value {
      list {
        shape {
          dim {
            size: 1024
          }
          dim {
            size: 2048
          }
        }
      }
    }
  }
  attr {
    key: "use_locking"
    value {
      b: true
    }
  }
  attr {
    key: "validate_shape"
    value {
      b: true
    }
  }
}
node {
  name: "save/Assign_66"
  op: "Assign"
  input: "model/att_seq2seq/encode/bidi_rnn_encoder/bidirectional_rnn/fw/extended_multi_rnn_cell/cell_0/lstm_cell/bias"
  input: "save/RestoreV2:66"
  attr {
    key: "T"
    value {
      type: DT_FLOAT
    }
  }
  attr {
    key: "_class"
    value {
      list {
        s: "loc:@model/att_seq2seq/encode/bidi_rnn_encoder/bidirectional_rnn/fw/extended_multi_rnn_cell/cell_0/lstm_cell/bias"
      }
    }
  }
  attr {
    key: "_output_shapes"
    value {
      list {
        shape {
          dim {
            size: 2048
          }
        }
      }
    }
  }
  attr {
    key: "use_locking"
    value {
      b: true
    }
  }
  attr {
    key: "validate_shape"
    value {
      b: true
    }
  }
}
node {
  name: "save/Assign_67"
  op: "Assign"
  input: "model/att_seq2seq/encode/bidi_rnn_encoder/bidirectional_rnn/fw/extended_multi_rnn_cell/cell_0/lstm_cell/kernel"
  input: "save/RestoreV2:67"
  attr {
    key: "T"
    value {
      type: DT_FLOAT
    }
  }
  attr {
    key: "_class"
    value {
      list {
        s: "loc:@model/att_seq2seq/encode/bidi_rnn_encoder/bidirectional_rnn/fw/extended_multi_rnn_cell/cell_0/lstm_cell/kernel"
      }
    }
  }
  attr {
    key: "_output_shapes"
    value {
      list {
        shape {
          dim {
            size: 1024
          }
          dim {
            size: 2048
          }
        }
      }
    }
  }
  attr {
    key: "use_locking"
    value {
      b: true
    }
  }
  attr {
    key: "validate_shape"
    value {
      b: true
    }
  }
}
node {
  name: "save/Assign_68"
  op: "Assign"
  input: "model/att_seq2seq/encode/bidi_rnn_encoder/bidirectional_rnn/fw/extended_multi_rnn_cell/cell_1/lstm_cell/bias"
  input: "save/RestoreV2:68"
  attr {
    key: "T"
    value {
      type: DT_FLOAT
    }
  }
  attr {
    key: "_class"
    value {
      list {
        s: "loc:@model/att_seq2seq/encode/bidi_rnn_encoder/bidirectional_rnn/fw/extended_multi_rnn_cell/cell_1/lstm_cell/bias"
      }
    }
  }
  attr {
    key: "_output_shapes"
    value {
      list {
        shape {
          dim {
            size: 2048
          }
        }
      }
    }
  }
  attr {
    key: "use_locking"
    value {
      b: true
    }
  }
  attr {
    key: "validate_shape"
    value {
      b: true
    }
  }
}
node {
  name: "save/Assign_69"
  op: "Assign"
  input: "model/att_seq2seq/encode/bidi_rnn_encoder/bidirectional_rnn/fw/extended_multi_rnn_cell/cell_1/lstm_cell/kernel"
  input: "save/RestoreV2:69"
  attr {
    key: "T"
    value {
      type: DT_FLOAT
    }
  }
  attr {
    key: "_class"
    value {
      list {
        s: "loc:@model/att_seq2seq/encode/bidi_rnn_encoder/bidirectional_rnn/fw/extended_multi_rnn_cell/cell_1/lstm_cell/kernel"
      }
    }
  }
  attr {
    key: "_output_shapes"
    value {
      list {
        shape {
          dim {
            size: 1024
          }
          dim {
            size: 2048
          }
        }
      }
    }
  }
  attr {
    key: "use_locking"
    value {
      b: true
    }
  }
  attr {
    key: "validate_shape"
    value {
      b: true
    }
  }
}
node {
  name: "save/Assign_70"
  op: "Assign"
  input: "model/att_seq2seq/encode/source_embedding/W"
  input: "save/RestoreV2:70"
  attr {
    key: "T"
    value {
      type: DT_FLOAT
    }
  }
  attr {
    key: "_class"
    value {
      list {
        s: "loc:@model/att_seq2seq/encode/source_embedding/W"
      }
    }
  }
  attr {
    key: "_output_shapes"
    value {
      list {
        shape {
          dim {
            size: 88
          }
          dim {
            size: 512
          }
        }
      }
    }
  }
  attr {
    key: "use_locking"
    value {
      b: true
    }
  }
  attr {
    key: "validate_shape"
    value {
      b: true
    }
  }
}
node {
  name: "save/restore_shard"
  op: "NoOp"
  input: "^save/Assign"
  input: "^save/Assign_1"
  input: "^save/Assign_2"
  input: "^save/Assign_3"
  input: "^save/Assign_4"
  input: "^save/Assign_5"
  input: "^save/Assign_6"
  input: "^save/Assign_7"
  input: "^save/Assign_8"
  input: "^save/Assign_9"
  input: "^save/Assign_10"
  input: "^save/Assign_11"
  input: "^save/Assign_12"
  input: "^save/Assign_13"
  input: "^save/Assign_14"
  input: "^save/Assign_15"
  input: "^save/Assign_16"
  input: "^save/Assign_17"
  input: "^save/Assign_18"
  input: "^save/Assign_19"
  input: "^save/Assign_20"
  input: "^save/Assign_21"
  input: "^save/Assign_22"
  input: "^save/Assign_23"
  input: "^save/Assign_24"
  input: "^save/Assign_25"
  input: "^save/Assign_26"
  input: "^save/Assign_27"
  input: "^save/Assign_28"
  input: "^save/Assign_29"
  input: "^save/Assign_30"
  input: "^save/Assign_31"
  input: "^save/Assign_32"
  input: "^save/Assign_33"
  input: "^save/Assign_34"
  input: "^save/Assign_35"
  input: "^save/Assign_36"
  input: "^save/Assign_37"
  input: "^save/Assign_38"
  input: "^save/Assign_39"
  input: "^save/Assign_40"
  input: "^save/Assign_41"
  input: "^save/Assign_42"
  input: "^save/Assign_43"
  input: "^save/Assign_44"
  input: "^save/Assign_45"
  input: "^save/Assign_46"
  input: "^save/Assign_47"
  input: "^save/Assign_48"
  input: "^save/Assign_49"
  input: "^save/Assign_50"
  input: "^save/Assign_51"
  input: "^save/Assign_52"
  input: "^save/Assign_53"
  input: "^save/Assign_54"
  input: "^save/Assign_55"
  input: "^save/Assign_56"
  input: "^save/Assign_57"
  input: "^save/Assign_58"
  input: "^save/Assign_59"
  input: "^save/Assign_60"
  input: "^save/Assign_61"
  input: "^save/Assign_62"
  input: "^save/Assign_63"
  input: "^save/Assign_64"
  input: "^save/Assign_65"
  input: "^save/Assign_66"
  input: "^save/Assign_67"
  input: "^save/Assign_68"
  input: "^save/Assign_69"
  input: "^save/Assign_70"
}
node {
  name: "save/restore_all"
  op: "NoOp"
  input: "^save/restore_shard"
}
library {
  function {
    signature {
      name: "att_sum_dot"
      input_arg {
        name: "keys"
        type: DT_FLOAT
      }
      input_arg {
        name: "query"
        type: DT_FLOAT
      }
      output_arg {
        name: "Sum"
        type: DT_FLOAT
      }
      description: "Calculates a batch- and timweise dot product"
    }
    node_def {
      name: "ExpandDims/dim"
      op: "Const"
      attr {
        key: "dtype"
        value {
          type: DT_INT32
        }
      }
      attr {
        key: "value"
        value {
          tensor {
            dtype: DT_INT32
            tensor_shape {
            }
            int_val: 1
          }
        }
      }
    }
    node_def {
      name: "ExpandDims"
      op: "ExpandDims"
      input: "query"
      input: "ExpandDims/dim:output:0"
      attr {
        key: "T"
        value {
          type: DT_FLOAT
        }
      }
      attr {
        key: "Tdim"
        value {
          type: DT_INT32
        }
      }
    }
    node_def {
      name: "mul"
      op: "Mul"
      input: "keys"
      input: "ExpandDims:output:0"
      attr {
        key: "T"
        value {
          type: DT_FLOAT
        }
      }
    }
    node_def {
      name: "Sum/reduction_indices"
      op: "Const"
      attr {
        key: "dtype"
        value {
          type: DT_INT32
        }
      }
      attr {
        key: "value"
        value {
          tensor {
            dtype: DT_INT32
            tensor_shape {
              dim {
                size: 1
              }
            }
            int_val: 2
          }
        }
      }
    }
    node_def {
      name: "Sum"
      op: "Sum"
      input: "mul:z:0"
      input: "Sum/reduction_indices:output:0"
      attr {
        key: "T"
        value {
          type: DT_FLOAT
        }
      }
      attr {
        key: "Tidx"
        value {
          type: DT_INT32
        }
      }
      attr {
        key: "keep_dims"
        value {
          b: false
        }
      }
    }
    ret {
      key: "Sum"
      value: "Sum:output:0"
    }
    attr {
      key: "_XlaCompile"
      value {
      }
    }
    attr {
      key: "_XlaScope"
      value {
      }
    }
    attr {
      key: "_XlaSeparateCompiledGradients"
      value {
      }
    }
    attr {
      key: "_noinline"
      value {
        b: true
      }
    }
  }
}
versions {
  producer: 26
  min_consumer: 12
}
